src/unitree_a1_go1_torch_template/jax_nn_weights/Dense_0_kernel.npy (npy, 6016 bytes, 1 tensors)

array f4 [23, 64]
0	0x3e8e1912	0.27753502
1	0x3d9faec8	0.07797009
2	0xbe6831fc	-0.22675318
3	0xbdf71298	-0.12064093
4	0x3e7b1bde	0.24522349
5	0xbed31c1c	-0.41232383
6	0xbe05087e	-0.12991521
7	0xbe8a8847	-0.27057096
8	0x3c79dde7	0.01525066
9	0x3dbc496a	0.0919369
10	0x3e4bc363	0.19898753
11	0x3e830d23	0.2559596
12	0x3df77734	0.12083283
13	0xbeaec4b4	-0.34134448
14	0x3ebeab07	0.37239859
15	0x3eb7d486	0.3590433
16	0x3e7c9d07	0.24669276
17	0xbec25634	-0.37956393
18	0x3ea7b083	0.32751855
19	0xbe2c38dc	-0.16818565
20	0xbe9cc3d9	-0.3061817
21	0xbd5117d1	-0.051048104
22	0x3d4b9680	0.049704075
23	0x3c93a0e5	0.018021056
24	0x3e82b4d2	0.2552858
25	0xbeb1ee41	-0.34752086
26	0xbd0607d3	-0.032722306
27	0x3da68982	0.08131696
28	0xbe420941	-0.18948843
29	0xbecd1e31	-0.40062097
30	0xbbb9f732	-0.00567522
31	0x3eb6b451	0.35684446
32	0x3c2b68bf	0.010461985
33	0x3e0ff7f3	0.14059429
34	0xbc596078	-0.013267629
35	0xbe4033dd	-0.18769784
36	0xbcc63f3e	-0.024200078
37	0xbe90c7fc	-0.28277576
38	0xbdd08eaa	-0.10183461
39	0xbd855019	-0.06509418
40	0xbec4a5e5	-0.38407817
41	0x3dad8439	0.08472485
42	0x3ec6aad7	0.38802215
43	0xbddb70e9	-0.10714895
44	0xb96d1095	-0.00022608259
45	0x3e81d21b	0.2535561
46	0xbe7a24c8	-0.24428093
47	0xbdc5bb22	-0.096548334
48	0x3d963a72	0.07335366
49	0x3e0490a8	0.12945807
50	0x3c2c7229	0.010525265
51	0x3dc7e322	0.09760119
52	0xbdbb2114	-0.091371685
53	0x3dc7cc74	0.09755793
54	0xbe1b4034	-0.1516121
55	0xbcaf48ba	-0.021396983
56	0xbeca58a4	-0.39520752
57	0xbe17357c	-0.14766496
58	0x3d950f65	0.07278327
59	0x3e6c8ae5	0.23099859
60	0xbe20bf3d	-0.15697952
61	0xbe19435e	-0.14967105
62	0xbdba9456	-0.09110324
63	0x3e33be58	0.17553079
64	0xbddc044a	-0.107430056
65	0x3e707d1a	0.23485222
66	0x3e31a818	0.17349279
67	0xbe0df551	-0.13863112
68	0xbec8c145	-0.39209953
69	0xbd1f074d	-0.038825322
70	0x3e85df34	0.26146853
71	0x3d62b3a5	0.055347104
72	0x3df498c4	0.119432
73	0xbecc8654	-0.39946234
74	0xbda7687b	-0.08174225
75	0xbd8540d2	-0.06506504
76	0x3e20cd13	0.1570323
77	0x3e9f634c	0.31130445
78	0xbd83c5f8	-0.06434244
79	0x3e0a7b35	0.13523562
80	0x3eb79e5a	0.35863
81	0xbdc2edbf	-0.09518003
82	0xbef1337f	-0.471096
83	0x3ddaa9b3	0.10676899
84	0x3d6fc7c6	0.05854013
85	0x3d0b854a	0.03406266
86	0xbe5a90ae	-0.21344253
87	0x3ea94076	0.33056992
88	0x3dcfaed6	0.10140769
89	0x3e7fb8bc	0.24972814
90	0xbc098b68	-0.008395053
91	0xbe3c185d	-0.18368669
92	0xbe99b323	-0.30019483
93	0xbe03fac9	-0.12888636
94	0xbe07a7f6	-0.13247666
95	0xbe60159f	-0.21883248
96	0x3d6e70f6	0.058213197
97	0x3dea2afa	0.114339784
98	0xbddd8ceb	-0.108178936
99	0xbd79190e	-0.06081491
100	0xbcb81429	-0.02247055
101	0x3e7d9b21	0.24766208
102	0x3d80d66a	0.06290896
103	0xbc703c5f	-0.014662831
104	0x3ea8cc82	0.32968527
105	0xbd8fe31d	-0.0702574
106	0x3db05596	0.08610074
107	0xbdc853b2	-0.097815886
108	0xbd91aec1	-0.0711341
109	0xbdb13cab	-0.086541496
110	0x3ea654a4	0.3248645
111	0x3e874952	0.26423126
112	0xbcbe117c	-0.023201697
113	0xbdb2025b	-0.086918555
114	0xbec5e0bf	-0.3864803
115	0x3e438bb9	0.19096269
116	0x3e93b72b	0.28850684
117	0xbd7188c9	-0.05896834
118	0xbe91aebd	-0.28453627
119	0x3e3ba3e3	0.18324237
120	0x3edf9a46	0.4367239
121	0x3dda2373	0.10651293
122	0xbe68afa9	-0.22723259
123	0x3e1cbab1	0.15305592
124	0xbe0bf540	-0.13667774
125	0xbd5733a3	-0.05253948
126	0x3ebfbfd6	0.37451047
127	0xbb9c6e51	-0.004773893
128	0x3df31250	0.11868727
129	0xbe11f591	-0.14253832
130	0xbed52f41	-0.41637614
131	0xbe985996	-0.2975585
132	0x3ce2cd33	0.027685737
133	0xbe019f87	-0.12658511
134	0xbdb645d7	-0.0890004
135	0xbafc5383	-0.0019250963
136	0xbeb001ab	-0.34376273
137	0x3eebd1d5	0.46058527
138	0x39b75fb3	0.0003497578
139	0x3d42f006	0.047592185
140	0xbcc8ccc4	-0.024511702
141	0xbe9e0a33	-0.30867156
142	0xbd025725	-0.03182139
143	0x3bb710af	0.0055867056
144	0x3c6fe09d	0.014640954
145	0xbe99549a	-0.29947358
146	0x3e7a5491	0.24446322
147	0xbe8bf445	-0.273348
148	0xbe101865	-0.14071806
149	0xbecd06a1	-0.4004412
150	0xbe77aea1	-0.2418771
151	0xbee708ee	-0.45124
152	0xbdd93296	-0.106053516
153	0xbe458850	-0.1929028
154	0x3e61b0ab	0.2204005
155	0xbd093d62	-0.033505805
156	0x3e7c130f	0.24616645
157	0xbe50d718	-0.20394552
158	0x3e9474c7	0.28995344
159	0x3d98bbf2	0.07457723
160	0x3d29fe7c	0.04150246
161	0x3e12dec4	0.14342791
162	0x3e2618a4	0.16220337
163	0x3e0999cb	0.13437574
164	0x3ee130c8	0.4398253
165	0xbd26fe5b	-0.040769916
166	0x3eb4e6b7	0.3533227
167	0xbd65e8e4	-0.056130305
168	0x3ce97492	0.028497968
169	0x3eb53f12	0.3539968
170	0x3e24948f	0.16072296
171	0x3e0c98c4	0.1373015
172	0x3d22b9af	0.039727863
173	0x3d411529	0.04713932
174	0xbd8cd234	-0.068760306
175	0x3d8f8a7d	0.070088364
176	0xbc917d58	-0.017759964
177	0x3de84594	0.11341396
178	0xbde2f438	-0.11081737
179	0xbd5d8654	-0.054083183
180	0xbe04f485	-0.12983902
181	0xbd1eb187	-0.038743522
182	0x3d956bfa	0.072959855
183	0x3d29bfbc	0.041442618
184	0xbd9594b5	-0.07303754
185	0xbe4e6431	-0.20155407
186	0xbd694f4b	-0.056960385
187	0x3d1290c0	0.035782576
188	0xbe0054fa	-0.12532416
189	0x3e65a171	0.22424866
190	0x3eabc30c	0.33547246
191	0xbe20a54d	-0.15688057
192	0x3d70b73f	0.058768507
193	0xbca68393	-0.020326411
194	0x3db1c5a4	0.08680275
195	0x3dd7478f	0.105116956
196	0x3d001395	0.031268675
197	0x3e1377b1	0.14401127
198	0xbed37aee	-0.41304725
199	0xbdb74452	-0.08948578
200	0xbe340ffa	-0.1758422
201	0xbba2534a	-0.0049537765
202	0xbdf60815	-0.1201326
203	0xbcb7c31a	-0.022431899
204	0xbd524f82	-0.051345356
205	0x3e93a7eb	0.2883905
206	0x3e30a6c6	0.17251119
207	0xbd3d00ff	-0.046143528
208	0x3d52632a	0.0513641
209	0xbd825c54	-0.063652664
210	0x3e0a4d69	0.13506092
211	0x3ee99221	0.456193
212	0x3ea05498	0.3131454
213	0xbd868959	-0.06569166
214	0xbdf0989f	-0.1174786
215	0xbd07d284	-0.033159748
216	0x3d26fafa	0.040766694
217	0xbd300bb4	-0.04297991
218	0x3dc4676f	0.09590041
219	0xbe8ec6dd	-0.27886096
220	0x3e43df09	0.1912805
221	0xbe91a09f	-0.28442857
222	0xbe42b185	-0.19013031
223	0x3dabf00b	0.08395394
224	0x3ea2ed28	0.3182156
225	0x3e2e7308	0.17036068
226	0x3e9eb16c	0.30994737
227	0xbe90a317	-0.28249428
228	0xbe7b53d7	-0.24543701
229	0x3e47c3b5	0.1950825
230	0x3d587e90	0.052855074
231	0xbebd9ee4	-0.37035286
232	0x3dd14a5c	0.10219261
233	0xbe5f70fa	-0.21820441
234	0xbe167f31	-0.14696957
235	0xbc06173b	-0.0081842495
236	0x3d1643ca	0.036685742
237	0x3dbf5c30	0.09343755
238	0xbd74339d	-0.059619535
239	0xbe0a365c	-0.13497299
240	0x3ed82614	0.4221655
241	0xbe10a836	-0.14126667
242	0x3dd51a68	0.10405427
243	0x3e954794	0.29156172
244	0xbda986d3	-0.08277669
245	0xbe821906	-0.25409716
246	0xbd9bf5ea	-0.07615264
247	0x3d4ebd2d	0.05047338
248	0x3db9174c	0.09037647
249	0x3e623519	0.22090568
250	0x3e0ded8e	0.13860151
251	0xbe2f9e09	-0.1715013
252	0x3e341a22	0.17588094
253	0xbe3a8e77	-0.18218409
254	0x3c52ca0a	0.012865553
255	0x3d37aeb2	0.044844337
