src/unitree_a1_go1_torch_template/jax_nn_weights/Dense_4_kernel.npy (npy, 1408 bytes, 1 tensors)

array f4 [10, 32]
00000000: 3155 1cbf 87d4 2bbf d3f0 3e3e a10c 333f
00000010: 674b e7bf a3b3 09bf 15c5 c53e 5b89 443e
00000020: 0c58 623d 1c30 2bbf e5b6 2dbd 29e3 3a3f
00000030: c04b 40c0 545d 9d3e 1d4f 06bd 7560 c23d
00000040: 43b4 1fc0 e2e3 f9be dec6 0dbf 4083 1a40
00000050: f092 283e 41e8 ce39 ad64 863f d16a 883f
00000060: 78f1 083f 6f11 08bf 9ef2 f23f 4f81 d8bd
00000070: 2c4a 2abf 6bc0 513f b773 cbbf fbca 953e
00000080: 5a31 553c b42e 8840 b9e3 a13e 5f24 23c0
00000090: 8fbc 13c0 7dba fe3d 89fa 55be 86c5 00bf
000000a0: 7d4d 723e 52ba 24bf 67ed c23e 7947 e2be
000000b0: 869d 70be d912 813f c270 9abd cc85 8ebd
000000c0: 085c cd3e bd52 373e 0da3 7440 03dc a7be
000000d0: ad43 76bd ba98 2cc0 a329 843f 9825 713f
000000e0: f256 37c0 2a49 473f 7289 30c0 188a 343f
000000f0: 7fdb 3bbe b3a5 91bf 8e45 f7bf 13f0 413c
00000100: 8b1e 423f 2ac6 64bf bbb2 543d 7e1c 823d
00000110: 4ff3 6d3f d220 74be 1906 e23e 2fa2 b03e
00000120: 3979 543e 91a8 fabe fad2 953d 542c 863e
00000130: f5c3 c2be da58 acbd db8c 2a3f 49ef 0a3e
00000140: 5afe a93e 29e5 9bbe 4197 723f 5f3d 0d3d
00000150: b192 993e d5be 9a3e 81f5 1dbf a72d 35bc
00000160: 9133 a53f 33bf a03f b5f6 aebc 5d12 d73e
00000170: a016 043f 9164 e6bd e589 303e ac4b f7be
00000180: 33cd 993e 3988 043d ef8d 053f 9f1b 903b
00000190: 2291 8c3d a459 2bbf be71 99be fe9b 023f
000001a0: 7ef2 76be 3fb3 e6bd eb94 9fbe cfdc 96bd
000001b0: ad22 61bd 8c20 aabd f26e 213f ce3f 2c3f
000001c0: 479c 963d 3b6b 1fbf e9fe d33d 1de2 4a3c
000001d0: a646 26bf 233f 813d 451d 4b3e aa39 893c
000001e0: 9b6d 063e aa6f 3dbd 35d1 77bc 7ab1 033f
000001f0: 20ad adbe b8ce 353e 2ccb 6d38 f4e7 d4be
00000200: 5d9a 86be 96da 02bf 278e 433e cf7b a5be
00000210: 1494 00be 69aa b93e fb1d 203e b2c1 aebe
00000220: 00a8 b5be 6df1 09be c2d8 c9be a86d 57be
00000230: 1602 d5be 79b5 1bbf 94b1 70be 9265 2f3e
00000240: 13ed c73e cc2c 70be 02f3 babe ab11 e8be
00000250: 2321 f1be bd8e 443f 728c 063e 8c74 173d
00000260: 3f0a c53e 266a 4bbf 44d2 89be aefc 7a3e
00000270: 3dbc adbe dbd9 febe b47d 93bc d124 1b3e
00000280: e21e 25bf 389e c6be b368 c83d d432 48bf
00000290: eced 133e 20bf a6be e482 18be 78a8 ea3d
000002a0: df45 e1bd 4366 e4bd 9e7b adbd 1ec8 003e
000002b0: 0b3c 053f 68ea b1be a6f6 d7be 0dda fcbe
000002c0: ddd0 a5be 5067 203f d06d 23bd da03 bc3e
000002d0: 6536 11be e3db 223f 3f8e cdbd c56d efbe
000002e0: d13b 1b3f 23f3 f0be 857a f23e 5770 473e
000002f0: 03be 19be 0f60 103e f9f7 26be 4f33 0b3f
00000300: c81b 86be 5f1c 68be 9a7d 0a3d f0e9 473e
00000310: f7a6 74bd 5b5c 95be 2915 59be 6869 eb3e
00000320: c3f7 ffbe 92f4 9f3e a673 ab3e e4fb 803e
00000330: 53f7 483e 8d9d 9a3e d585 7a3e eb42 a23e
00000340: 3148 233d 48bf 09be effe 05bf e7d1 93be
00000350: 1e32 b7ba 8ab1 debe 45ee a8be c48c 6bbc
00000360: a2a8 f3be a23c c33d 9b5b 01bc 153c 76bd
00000370: 4a2a b2be a9e9 52be 13de 573e 7002 54bd
00000380: 4632 83bf a996 08bf 1676 d3bd fc88 a8be
00000390: 2364 273f 3bec 863e 2201 a0bd 925a 0e3f
000003a0: e366 0b3f 616f 7a3e 22f1 f03e a062 48bd
000003b0: c84f 1cbf 49b5 e8be 140d 81be fa24 ca3e
000003c0: 5313 72be ef9c 9abe 52bd 32be 0c7b 3c3e
000003d0: 280a 0c3f 9eee 943e aa95 66be 5d6c d73e
000003e0: 61d7 ed3e f772 313f 1f22 233f 5e45 6abd
000003f0: 493a 96bd fc18 a23e c896 a4be f688 bfbe
-0.6106749 -0.67121166 0.18646555 0.69941145 -1.8069886 -0.5378973 0.38626924 0.19193022
0.05525975 -0.66870284 -0.04241075 0.7300287 -3.0046234 0.30735266 -0.032790292 0.09491054
-2.4953773 -0.48806673 -0.5538157 2.4142609 0.16462302 0.00039464424 1.0499474 1.0657598
0.5349345 -0.531516 1.8980291 -0.10571539 -0.6651943 0.8193423 -1.5894688 0.29256424
0.013012255 4.255701 0.3161905 -2.549095 -2.3083837 0.124379136 -0.20896353 -0.50301397
0.23662372 -0.643468 0.3807175 -0.44195154 -0.2349759 1.0083877 -0.07541038 -0.069591135
0.40109277 0.17902656 3.8224518 -0.32785043 -0.060123134 -2.6968217 1.0325207 0.9419799
-2.8646817 0.77846014 -2.758389 0.70523214 -0.1834545 -1.1378692 -1.9318101 0.011837023
0.75827855 -0.89364874 0.051928263 0.06353091 0.92949384 -0.23840645 0.44145277 0.34498736
0.20749368 -0.4895673 0.07315631 0.26205695 -0.38040128 -0.084153846 0.6662118 0.13567843
0.33201867 -0.30448273 0.94762045 0.034482356 0.2999473 0.30223718 -0.61702734 -0.011058248
1.2906362 1.2558349 -0.021357873 0.42006198 0.51597023 -0.1124965 0.17240103 -0.4829992
0.30039367 0.032356475 0.521697 0.004397824 0.068636194 -0.66933656 -0.2996959 0.51019275
-0.24115941 -0.11264657 -0.31168303 -0.07366335 -0.05496471 -0.08306989 0.63059914 0.6728486
0.07354026 -0.62272996 0.10351355 0.012383011 -0.6495155 0.063108705 0.19835384 0.01675113
0.13127749 -0.04624907 -0.015125562 0.5144268 -0.33921146 0.17754638 5.669442e-05 -0.41583216
-0.26289645 -0.51114786 0.19097196 -0.3232102 -0.12556487 0.36262825 0.15636437 -0.34132153
-0.35479736 -0.13471003 -0.39423186 -0.21037924 -0.41603154 -0.6082378 -0.2350524 0.1712859
0.3904806 -0.23454589 -0.36513525 -0.4532598 -0.47095594 0.767803 0.13139513 0.036976382
0.3848438 -0.79458845 -0.26918232 0.24510452 -0.33932677 -0.49775586 -0.018004276 0.15150763
-0.6450025 -0.38792586 0.09785595 -0.7820256 0.14446229 -0.32567692 -0.14893681 0.11457914
-0.10999655 -0.111523174 -0.08470844 0.12576339 0.52044743 -0.3474915 -0.42180365 -0.4938511
-0.32385913 0.6265764 -0.039899647 0.36721689 -0.14180906 0.6361677 -0.10036897 -0.46763435
0.6063815 -0.470605 0.473591 0.19476448 -0.1501389 0.14099143 -0.16305532 0.54375166
-0.2619307 -0.22667073 0.03381119 0.19522834 -0.059729543 -0.29172024 -0.21199478 0.45978856
-0.49993715 0.3124128 0.3348667 0.25192177 0.19625597 0.30198327 0.24465115 0.3169168
0.03986377 -0.13451874 -0.5234212 -0.2887108 -0.0013976728 -0.43494827 -0.32994285 -0.014376823
-0.47589594 0.09533049 -0.007895376 -0.060115892 -0.3479789 -0.20596947 0.21080808 -0.051760137
-1.0249717 -0.5335489 -0.103252575 -0.3291701 0.6538717 0.26352105 -0.07812716 0.5560695
0.5445387 0.2445655 0.4705897 -0.04892218 -0.61059237 -0.4545081 -0.2520529 0.39481336
-0.23640184 -0.30197856 -0.17455032 0.18406314 0.54703 0.290883 -0.2251803 0.42074862
0.46453384 0.6931605 0.6372394 -0.05719506 -0.07335336 0.31659687 -0.32146287 -0.3740918
