src/unitree_a1_go1_torch_template/jax_nn_weights/Dense_9_bias.npy (npy, 640 bytes, 1 tensors)

array f4 [128]
000000 eb 1f 1f bd e4 08 cb bd ab 15 07 bc b5 68 21 be
       -0.0388488 -0.09913805 -0.008244912 -0.15762599
000010 07 78 1b 3d 20 93 e4 bd e7 63 9c bb 45 e9 74 bd
       0.037956264 -0.11160874 -0.0047726515 -0.059792776
000020 4a ab be bd 47 a0 89 bd fa fd 95 bb 85 7f 8a bd
       -0.093100145 -0.067200236 -0.0045773955 -0.06762604
000030 27 84 9a bc f3 ae 75 bd 2a 56 82 bd 83 f9 39 bd
       -0.018861843 -0.059981298 -0.06364091 -0.04540397
000040 f2 30 ba bc d2 dd f4 bc 95 d0 af 3c 4b d5 a8 bd
       -0.022728417 -0.029890928 0.021461764 -0.082438074
000050 9f 03 10 bb 94 71 01 bd 52 07 95 3b 6c 3c aa bc
       -0.0021974815 -0.031602457 0.004547992 -0.020780765
000060 b9 8c b9 bd 7b 7a 8a bd 58 c5 c8 3d 43 fb 99 3c
       -0.09060044 -0.067616425 0.09803265 0.018796569
000070 d0 4c 03 be 47 97 97 3d 74 09 9c bd 17 41 bc bd
       -0.1282227 0.07401901 -0.076189905 -0.091921024
000080 15 ba a4 3d 5f cc 10 be fc a8 ff bc 91 d8 3f bd
       0.08043305 -0.14140461 -0.031208508 -0.046837393
000090 4b 29 10 bc f6 64 a5 3c bc e4 84 3d 7a 8e 0a be
       -0.0087989075 0.020189743 0.0648894 -0.13530913
0000a0 b6 48 80 bd 44 c3 00 be ab 33 3e bd 61 c3 c8 bb
       -0.062638685 -0.12574488 -0.046435993 -0.0061268066
0000b0 1d 60 48 3d 74 f6 73 bd 6b 42 84 bd 1d 6a 8a bc
       0.048919786 -0.059561208 -0.06457981 -0.016896302
0000c0 3e 90 08 be 56 ba d5 bd 48 d7 e1 bd 30 a0 03 be
       -0.13336274 -0.104359314 -0.1102739 -0.12854075
0000d0 ba c2 a3 bd 51 d6 09 be 05 f1 84 bd 02 8f 49 bd
       -0.079961255 -0.13460661 -0.06491283 -0.04920865
0000e0 a4 37 31 bd 6c e5 d6 bd 3b 61 a8 bd 24 63 5b bd
       -0.043265954 -0.104929775 -0.0822167 -0.053561345
0000f0 d2 d8 7d bd 01 cb ea bc 22 1e 1f be 7a 79 10 bd
       -0.061974354 -0.028661253 -0.15538839 -0.0352721
000100 5e d1 57 bd e6 0d 16 bd 81 d3 6e bd 02 67 d6 3c
       -0.052689902 -0.03663435 -0.058307175 0.026172165
000110 ae be f2 bb 44 da 0e be b9 ad dd bd a3 a9 76 3d
       -0.0074079847 -0.13950449 -0.108241506 0.060220372
000120 db d2 33 be f6 bd f4 bb 82 c7 28 bd 29 66 3e 3d
       -0.17560904 -0.007468934 -0.04120589 0.046484146
000130 40 25 c9 bd 25 b5 1b be 40 cb 68 bd 23 e5 37 3c
       -0.09821558 -0.1520582 -0.05683446 0.011224064
000140 b8 09 2d bd fe 7f a1 bc be 57 a8 3d 2b 26 97 bd
       -0.042245597 -0.019714352 0.082198605 -0.07380327
000150 9b 6d 88 3d 2b 66 04 bd fc 5a d5 bc 06 4f 8a 3a
       0.066615306 -0.032323997 -0.026044361 0.0010552115
000160 82 14 5c bc 35 1d 1e be f0 99 96 bb 0d f3 01 bd
       -0.013432624 -0.15440829 -0.0045959875 -0.031725932
000170 1f 4d f4 3c 98 a7 53 3c cb 4f 87 3c b3 9f ae 3c
       0.02982193 0.012918375 0.01651754 0.021316385
000180 41 ee 76 bd 7d 70 4f 3d 3a 9f 23 bd 0b 4e d3 bd
       -0.06028581 0.050644387 -0.039946772 -0.1031762
000190 d4 b0 12 3d 3c b4 b1 bc c8 13 41 3c 73 9e 98 bd
       0.035813168 -0.021692388 0.011784501 -0.07452097
0001a0 e5 2b 4f bd d7 52 51 bd c0 66 bb bb 25 a3 fc bd
       -0.05057897 -0.051104393 -0.005719036 -0.12335805
0001b0 3e c4 2e be cf 95 5e bd f9 70 4c 3d 88 de b9 bd
       -0.17067048 -0.054342087 0.049912427 -0.090756476
0001c0 26 4a 81 bc bd f3 f4 3c 87 ca 81 bd a1 44 28 bd
       -0.015782427 0.02990138 -0.06337457 -0.041081075
0001d0 36 7e bb bd 40 9a 0f bd 5f c8 6f bd 73 e0 f0 3c
       -0.09154932 -0.035059214 -0.0585407 0.0294039
0001e0 19 50 cc bd 0f b0 4e bc a9 51 8e 3b f0 ef 13 3c
       -0.09976215 -0.012615218 0.0043432307 0.0090293735
0001f0 3b ac cf bd 0f bf d5 bc 4a c4 94 3b 8b 19 3e bd
       -0.10140272 -0.02609208 0.004540001 -0.04641108
