src/unitree_a1_go1_torch_template/jax_nn_weights/Dense_11_bias.npy (npy, 640 bytes, 1 tensors)

array f4 [128]
0.074599795 0.058407396 -0.04407836 0.051612668 0.15428445 -0.3583629 -0.08263186 -0.16403557
-0.021741679 0.2793347 0.077910885 0.035123523 0.014359937 -0.07476197 0.07217665 -0.10647245
0.0023416227 0.07352362 -0.047253814 0.060727365 -0.4304618 -0.0040911566 -0.04230155 -0.1651109
-0.05160435 -0.07688327 -0.014204668 -0.018170666 -0.010835945 -0.041872427 0.0075967875 0.30693102
-0.06730919 -0.04381958 -0.11193998 -0.0501275 -0.037780017 -0.035785567 -0.007249345 -0.026195675
-0.044714645 0.0332544 0.0004684357 0.09998962 0.06517546 0.10211067 -0.066595 -0.19183522
0.17314924 0.087102875 -0.12533827 0.33610028 0.05799639 0.037040006 0.5212535 0.065291494
0.21141669 0.29112282 0.053179435 0.061979443 -0.17029616 -0.034897488 -0.080441505 0.04955201
-0.057728194 0.1187202 -0.12177506 0.27573827 0.038047187 0.0041432288 0.44608805 0.027628817
0.02449317 0.15826887 -0.015016932 0.12258964 0.017405918 0.39861965 0.06881069 0.10658415
-0.085297786 -0.23016141 -0.16342875 -0.067117 -0.054751102 -0.10059722 -0.14892584 -0.10995552
0.090170085 -0.042320892 0.049507987 0.16710253 0.59119064 0.24470484 -0.019434784 0.025215494
0.3644753 0.032657888 -0.051684506 0.019387132 0.0099553075 -0.002610639 0.16049667 -0.25608546
0.23163134 0.5034863 -0.07268269 0.115949914 -0.017586043 -0.034373824 -0.028404843 -0.24819736
-0.041933786 -0.041271165 -0.033211403 -0.07416726 0.011172845 -0.1116064 -0.05373055 0.045833975
-0.008276328 0.08980435 0.24348772 -0.049889598 -0.09823507 -0.016803954 -0.075267404 -0.12082407
00000000: c7c7 983d 983c 6f3d 838b 34bd ce67 533d
00000010: befc 1d3e 587b b7be e53a a9bd f1f8 27be
00000020: 9b1b b2bc f504 8f3e be8f 9f3d afdd 0f3d
00000030: f145 6b3c ce1c 99bd 5ad1 933d 3a0e dabd
00000040: e975 193b 8d93 963d 378d 41bd 42bd 783d
00000050: 7d65 dcbe 1c0f 86bb 6444 2dbd d512 29be
00000060: 155f 53bd fa74 9dbd b2ba 68bc a6da 94bc
00000070: 3f89 31bc 6c82 2bbd 79ee f83b 1026 9d3e
00000080: 67d9 89bd 297c 33bd ca40 e5bd 7e52 4dbd
00000090: 38bf 1abd e393 12bd ea8b edbb 5098 d6bc
000000a0: b426 37bd c435 083d 6098 f539 5cc7 cc3d
000000b0: b67a 853d 661f d13d f662 88bd 7470 44be
000000c0: 094e 313e fe62 b23d ad58 00be 5615 ac3e
000000d0: 9f8d 6d3d 43b7 173d df70 053f 8cb7 853d
000000e0: 9e7d 583e 0d0e 953e aed2 593d 28de 7d3d
000000f0: 1e62 2ebe abf0 0ebd 84be a4bd 0cf7 4a3d
00000100: 6674 6cbd 9423 f33d 3465 f9bd 912d 8d3e
00000110: 5ed7 1b3d ecc3 873b a765 e43e d455 e23c
00000120: e7a5 c83c 3c11 223e 9409 76bc 4710 fb3d
00000130: db96 8e3c e017 cc3e 9eec 8c3d ca48 da3d
00000140: 9bb0 aebd 6faf 6bbe de59 27be a374 89bd
00000150: b142 60bd ea05 cebd 0480 18be 5c30 e1bd
00000160: 18ab b83d ac58 2dbd e3c8 4a3d ed1c 2b3e
00000170: 4558 173f e893 7a3e b235 9fbc b990 ce3c
00000180: 829c ba3e 47c4 053d 22b3 53bd c3d1 9e3c
00000190: 961b 233c 4117 2bbb 3d59 243e a21d 83be
000001a0: c430 6d3e 7ae4 003f aada 94bd 2677 ed3d
000001b0: 9b10 90bc 91cb 0cbd 46b1 e8bc 7327 7ebe
000001c0: c3c2 2bbd f40b 29bd ae08 08bd 01e5 97bd
000001d0: 4f0e 373c e591 e4bd 9114 5cbd 68bc 3b3d
000001e0: 7099 07bc 58eb b73d d854 793e 0959 4cbd
000001f0: 782f c9bd 72a8 89bc cc25 9abd 9c72 f7bd
