src/unitree_a1_go1_torch_template/jax_nn_weights/Dense_12_kernel.npy (npy, 640 bytes, 1 tensors)

array f4 [128, 1]
00000000: 3037 32be ed1c 4cbe e21b 603e 589b 3abe
00000010: 21c1 ab3d 41c5 c63d 2f85 f13d 6cee 023e
00000020: 0585 773e a320 9e3d 476e 30be 7bcf 69be
00000030: cc13 993d 6589 aa3d 7594 b13d 63b2 4a3e
00000040: c2d7 8d3e 32be 83be c9dd 633e bb93 da3d
00000050: 2443 ac3d 6110 85be 2ab6 843e be32 9b3d
00000060: ec7c a23e 582b 833e bf46 743e a079 a73d
00000070: 63be bc3d 7e51 923d f57b 36be 7213 c23d
00000080: b3a0 aa3d 1e2b 7d3e ef90 853d 629f 9d3d
00000090: 7a9d a53d 2413 063e b305 cfbd d29d 803e
000000a0: 6073 783e 9395 36be df82 953d 1cce ae3d
000000b0: fe21 6dbe 086f 953d a8b5 6a3e 4822 a33d
000000c0: 8a43 973d acbf 913d 8e59 083e 5edd 8f3d
000000d0: 58a1 97bd 919a 11be 8561 bf3d 97c1 a73d
000000e0: 544b a43d fbd4 b53d 5fcd 8b3d e8fa 03be
000000f0: 43df 9d3d fb58 953e 8def 673e a3e9 2fbe
00000100: cade 383e 85ec a53d 0144 b23d 8a26 af3d
00000110: 7da7 35be b2f6 583e e4c1 823d 486d 68be
00000120: a2fb 80be 168d 8b3d b8df 703e 8921 b83d
00000130: ba66 69be 2d67 903d 9ec9 4cbe 650d a93d
00000140: 41f9 8f3d 3a50 b73d df86 9d3d c9e4 583e
00000150: 66a3 8b3e 6ed9 103e f0a9 a93d fe88 eb3d
00000160: c238 1dbe 07ed a03e 0690 6dbe 7ede 9a3d
00000170: 97d7 c53d 1037 9b3d e4fd 993e 1d13 83be
00000180: 6a9c ec3d a57a b13d 1c6b a23d 12d6 ae3d
00000190: 2163 66be e6d8 77be 50e8 a43d 7cdb c23d
000001a0: d35d b43d 1135 ad3d b592 a53d 1e9d 963d
000001b0: 7780 813d e326 8f3e 8d48 793e 62c1 af3d
000001c0: be29 983d b23e 773e d9e3 643e 0a9a 4b3e
000001d0: 9856 b93d 2112 7b3e 40cb 3b3e 15e4 2dbe
000001e0: 5322 a43d c40d 69be 0fb3 893d bccd 373e
000001f0: 6a08 a03d 7bd1 483e dbdc b03d 2a3a 573e
-0.17403865 -0.1993291 0.21885636 -0.18223321 0.08386446 0.09705592 0.11792981 0.12786263
0.24171837 0.07721069 -0.17229567 -0.22833054 0.07474479 0.08326987 0.08670894 0.19794612
0.27703673 -0.25731045 0.22252573 0.106727086 0.084112436 -0.2598906 0.2592023 0.07578038
0.31735933 0.25619006 0.23855112 0.08177495 0.09216001 0.0714445 -0.17820723 0.09476365
0.08331432 0.24723479 0.065217845 0.076964155 0.08086677 0.13093239 -0.10108509 0.25120407
0.24262762 -0.17830496 0.07300352 0.08535406 -0.23157498 0.07296568 0.22920859 0.07965523
0.07385929 0.07116637 0.13315412 0.07024644 -0.07403821 -0.14219119 0.09344772 0.08191221
0.0802218 0.088785134 0.06826281 -0.12888682 0.077085994 0.2916945 0.22649975 -0.17178969
0.18053737 0.08101753 0.08704377 0.085522726 -0.17739673 0.21187857 0.06384638 -0.22697937
-0.2519198 0.068140194 0.23522842 0.08990771 -0.22793093 0.07050929 -0.19998786 0.08254508
0.07029963 0.08950849 0.0769174 0.21181025 0.272731 0.14145443 0.08284366 0.115007386
-0.15353683 0.31430838 -0.23199472 0.07561968 0.09660261 0.07578862 0.30076516 -0.2560052
0.11553271 0.08665971 0.07930586 0.085369244 -0.22498752 -0.24203834 0.080521226 0.095145196
0.08806958 0.08457387 0.08084623 0.073541865 0.06323331 0.27959356 0.24344082 0.08581807
0.07429837 0.2414501 0.22352542 0.1988298 0.090497196 0.24518634 0.18339252 -0.16981538
0.08014359 -0.22759157 0.06723606 0.17949575 0.07814105 0.1961116 0.08635875 0.21018282
