src/unitree_a1_go1_torch_template/jax_nn_weights/Dense_1_kernel.npy (npy, 6016 bytes, 1 tensors)

array f4 [23, 64]
0	0x3d0efd4d	0.034909535
1	0xbeac6764	-0.3367263
2	0x3f3e49c5	0.74331313
3	0x3f8ad475	1.0846087
4	0x3f4c0547	0.7969555
5	0x3f9ec81e	1.2404821
6	0xbe2c7d6d	-0.16844721
7	0xbe384b8e	-0.17997572
8	0xbf20be91	-0.6279078
9	0xbea56ed5	-0.3231112
10	0xbecac202	-0.3960114
11	0x3e64741c	0.22309917
12	0xbec8127d	-0.39076605
13	0xbf1f1bcd	-0.62151796
14	0x3f0901fb	0.53518647
15	0xbcc1c7c2	-0.023654822
16	0x3ea178fe	0.31537622
17	0x3f0aca4d	0.54214936
18	0xbf6aacdb	-0.91670007
19	0xbdcfd6f2	-0.101484194
20	0xbe08313c	-0.13300031
21	0xbe813a59	-0.25239828
22	0xbe4ef394	-0.20210105
23	0xbe56b6a6	-0.20968112
24	0x3e9c6ae4	0.305503
25	0x3f1642a9	0.58695465
26	0xbf117d0d	-0.5683144
27	0x3da0ba81	0.07848073
28	0x3e80f88c	0.25189626
29	0x3e983a54	0.29732
30	0x3eccb9ef	0.39985606
31	0xbeeea72f	-0.46611926
32	0xbf16124d	-0.58621675
33	0x3e8619bd	0.26191512
34	0xbf19d512	-0.60090744
35	0x3ec1a30a	0.378197
36	0x3ecb06c9	0.39653614
37	0x3f16610e	0.58741844
38	0x3f8fff56	1.1249797
39	0x3f6c83e6	0.9238876
40	0xbe8fda5d	-0.28096285
41	0x3f46e9a6	0.7770027
42	0xbf837582	-1.0270236
43	0x3f46ea9e	0.7770175
44	0x3e1993ff	0.14997862
45	0x3f5c883f	0.86145395
46	0x3f18b223	0.59646815
47	0x3d81ead7	0.0634362
48	0xbf60ea0f	-0.87857145
49	0x3ec7edfb	0.39048752
50	0x3f792e12	0.9733592
51	0xbf5eb92e	-0.8700131
52	0x3e267a09	0.1625749
53	0xbf269026	-0.65063703
54	0xbf3c8d6a	-0.7365328
55	0xbe2d4d80	-0.16924095
56	0xbf177131	-0.5915709
57	0xbf842efe	-1.0326841
58	0x3f56be22	0.8388387
59	0x3ce30b4d	0.02771535
60	0xbf4bf10a	-0.7966467
61	0xbefe34dd	-0.49649706
62	0xbf31aa7e	-0.69400775
63	0xbe4eb35b	-0.20185606
64	0x3e122bbc	0.14274496
65	0xbeb10d53	-0.34580478
66	0xbea58b50	-0.3233285
67	0xbec9441f	-0.39309785
68	0xbed74fa9	-0.42052963
69	0x3d7b5957	0.061364498
70	0x3f2245fe	0.6338805
71	0xbecfbf60	-0.40575695
72	0x3e42ff33	0.19042663
73	0xbf08c641	-0.5342751
74	0x3e1ff635	0.15621264
75	0x3f51b5db	0.81918114
76	0xbcb269ff	-0.021779059
77	0xbf7beb83	-0.9840624
78	0x3e3bbfe5	0.1833492
79	0x3eaa35e1	0.3324423
80	0x3ee47116	0.44617528
81	0xbf02a071	-0.51026064
82	0xba861367	-0.0010229171
83	0x3f27d22b	0.65555066
84	0xbec052b0	-0.37563086
85	0xbeaf0f4b	-0.34191355
86	0x3be1ed81	0.0068947678
87	0xbd445c6f	-0.047939714
88	0xbfb82666	-1.4386718
89	0x3efdf083	0.49597558
90	0x3d8ae442	0.06781818
91	0x3ec3486e	0.38141197
92	0x3f41688b	0.75550145
93	0x3f4ca829	0.7994409
94	0xbf17e83d	-0.5933874
95	0x3ddf8387	0.10913759
96	0xbf296493	-0.6616909
97	0xbf604d3a	-0.8761784
98	0xbfc0b8a3	-1.5056347
99	0x3f7835b1	0.96956927
100	0x3f793802	0.97351086
101	0x3ea6cd1f	0.3257837
102	0x3f0e0516	0.5547651
103	0xbe15387e	-0.14572331
104	0xbe4ad997	-0.19809566
105	0x3c9ffe96	0.019530576
106	0x3ea9b101	0.33142856
107	0xbeac415a	-0.3364361
108	0x3f451ae1	0.7699414
109	0x3ea012ee	0.31264442
110	0xbe4772d9	-0.19477405
111	0xbe72606d	-0.23669596
112	0xbecb46a6	-0.39702338
113	0xbf45fa26	-0.7733482
114	0xbeba5e83	-0.36400232
115	0x3eee8c99	0.46591642
116	0xbbbddf9f	-0.00579448
117	0x3ecdc166	0.40186614
118	0xbe4366f0	-0.19082236
119	0x3cf0a2d2	0.029374514
120	0xbd5a36fa	-0.053275086
121	0xbe865c54	-0.26242316
122	0xbeca63a9	-0.3952916
123	0x3f4e5643	0.80600375
124	0x3f7ae646	0.9800762
125	0xbeb29288	-0.3487742
126	0xbd9bf242	-0.076145664
127	0xbf1b854e	-0.6075028
128	0xbf33c378	-0.70220137
129	0xbf71c7c9	-0.9444547
130	0x3ea35d7c	0.3190726
131	0x3d8ca986	0.068682715
132	0xbba99717	-0.005175482
133	0xbd71d520	-0.059041142
134	0x3f1e8bd8	0.61932135
135	0x3f61d538	0.8821597
136	0xbe05f16a	-0.13080373
137	0xbe11e34b	-0.14246862
138	0xbe942576	-0.2893483
139	0x3f9172b1	1.1363126
140	0xbf1ccb96	-0.6124815
141	0xbee71072	-0.45129734
142	0xbf54379d	-0.8289736
143	0xbf3de013	-0.74170035
144	0xbf2177d1	-0.6307345
145	0x3f4dd252	0.8039905
146	0x3e666200	0.22498322
147	0xbe8a437d	-0.27004614
148	0xbc7200f6	-0.014770737
149	0xbf21de0c	-0.6322944
150	0x3e4eae3d	0.20183654
151	0xbf17fd1c	-0.5937059
152	0xbf1896d3	-0.5960514
153	0xbf28ec50	-0.65985584
154	0x3e9ed655	0.31022897
155	0x3f8f73d3	1.1207222
156	0x3f3b24fe	0.7310332
157	0x3cfa2af3	0.030538058
158	0xbd243978	-0.04009387
159	0x3f27aa47	0.654942
160	0x3ef90309	0.48635128
161	0x3f3be28c	0.7339256
162	0x3ed26008	0.4108889
163	0xbe1f9f4b	-0.15588109
164	0x3e4e4129	0.20142044
165	0x3ebf320a	0.37342864
166	0xbe9b5410	-0.30337572
167	0xbf695a03	-0.9115297
168	0x3e7fc4a7	0.2497736
169	0xbe119910	-0.14218545
170	0xbef05f05	-0.46947494
171	0xbf2000c9	-0.625012
172	0x3f1d05cc	0.6133697
173	0x3f0771cc	0.52908015
174	0xbf8ba11b	-1.090854
175	0xbf3ffacf	-0.7499208
176	0x3ee5ddb0	0.44895697
177	0x3ec637a0	0.38714314
178	0x3e803de8	0.2504723
179	0x3e18e1c5	0.14929874
180	0xbe747c2f	-0.23875497
181	0xbc5dcf1b	-0.013538147
182	0x3f222114	0.63331723
183	0x3e18826a	0.14893499
184	0x3f64711e	0.89235103
185	0xbf029a7e	-0.51016986
186	0x3d5295b3	0.051412296
187	0xbe8c430d	-0.27394906
188	0xbdcde371	-0.10053147
189	0x3d6ee983	0.058328163
190	0xbdc9ab7e	-0.09847163
191	0xbf4a5c27	-0.79046863
192	0xbe898c17	-0.26864693
193	0x3e4828de	0.1954684
194	0xbdf7fd9e	-0.121089205
195	0xbeecd884	-0.46258938
196	0xbde98f3a	-0.114042714
197	0xbf08950e	-0.5335244
198	0xbda5ea80	-0.08101368
199	0xbf224634	-0.6338837
200	0xbea7fbb4	-0.32809222
201	0xbe550ed1	-0.20806433
202	0x3ed217a6	0.41033667
203	0xbe3ae768	-0.18252337
204	0x3e980034	0.29687655
205	0xbf12732d	-0.57206994
206	0x3e377b8b	0.17918222
207	0xbd841e8c	-0.06451139
208	0xbeb6c038	-0.35693526
209	0x3db5848b	0.08863171
210	0x3f34ef65	0.7067779
211	0xbeb1c1d4	-0.34718192
212	0x3dfaf89d	0.122544505
213	0xbe9f2ae6	-0.31087416
214	0xbe3efb0a	-0.18650451
215	0x3ef3b3ba	0.47598058
216	0x3f1e4efd	0.61839277
217	0x3e97e15c	0.29664123
218	0x3e770ae5	0.2412525
219	0xbdcc629f	-0.09979748
220	0xbf43da10	-0.7650461
221	0xbf1bf2db	-0.60917443
222	0x3f038320	0.51371956
223	0x3ede0370	0.43361998
224	0xbe4da706	-0.20083246
225	0xbd204493	-0.039127897
226	0xbf078ce9	-0.52949387
227	0xbf408657	-0.75204986
228	0x3f39ef6e	0.72630966
229	0x3e984582	0.2974053
230	0xbd870c64	-0.0659416
231	0xbe191f7a	-0.14953414
232	0x3e8d2720	0.27568913
233	0xbf767006	-0.96264684
234	0x3e1ca68a	0.15297905
235	0xbe5c509c	-0.21515125
236	0x3eaff974	0.34370005
237	0x3deafa2d	0.114734985
238	0x3e88d20d	0.26722756
239	0x3e831591	0.2560239
240	0x3f5d7c84	0.8651812
241	0x3f0dc7a7	0.5538277
242	0xbea776fb	-0.32707962
243	0x3e81dd97	0.25364372
244	0x3e486d00	0.1957283
245	0x3e460327	0.1933714
246	0x3e45ad67	0.19304429
247	0x3f059ee3	0.52195567
248	0x3b6d0e88	0.0036171991
249	0xbca0dde5	-0.019637058
250	0xbe1fae40	-0.15593815
251	0x3f308808	0.6895757
252	0xbec0ae06	-0.3763277
253	0xbd19a932	-0.037514873
254	0x3e4cb758	0.19991815
255	0xbf126a20	-0.57193184
