src/unitree_a1_go1_torch_template/jax_nn_weights/Dense_8_bias.npy (npy, 640 bytes, 1 tensors)

array f4 [128]
0	0xbd15684a	-0.03647641
1	0x3bc6a88f	0.006062574
2	0x3d23f56b	0.04002897
3	0x3cf06952	0.029347096
4	0xbc8fc938	-0.017552003
5	0x3d751613	0.059835505
6	0xbd6f8e4d	-0.058485318
7	0x3d4695e8	0.048482805
8	0x3ce0068a	0.027346868
9	0x3d6076b3	0.0548007
10	0xbcb67ca9	-0.02227624
11	0xbc102f86	-0.008800393
12	0xbc9f71c1	-0.019463422
13	0x3c3c2cba	0.011485273
14	0xbd9fb876	-0.07798855
15	0x3c969890	0.018383294
16	0x3d3095a2	0.04311145
17	0xbc80dea3	-0.015731161
18	0xbdb2775c	-0.08714172
19	0x3ca2fbb2	0.019895408
20	0x3cdaa69c	0.026690774
21	0xbd1ebd5a	-0.0387548
22	0xbc93f882	-0.018062834
23	0xbc21186a	-0.009832481
24	0x3d16ecdf	0.03684699
25	0x3c1e865a	0.009675587
26	0x3bd83390	0.0065979436
27	0xbd3f2e69	-0.04667512
28	0xbceef0ff	-0.02916765
29	0x3a2672cf	0.0006349505
30	0xbcb0af3d	-0.021567935
31	0x3be86d2a	0.0070930915
32	0x3d906c5c	0.07051918
33	0x3dd52a93	0.10408511
34	0xbc76a771	-0.01505457
35	0xbd368c62	-0.044567473
36	0x3c066662	0.008203121
37	0x3da29fc3	0.079406284
38	0xbd91614f	-0.07098638
39	0x3d283563	0.04106654
40	0x3d200035	0.039062697
41	0xbd8a3337	-0.0674805
42	0x3d17d315	0.037066538
43	0x3cf9b4f6	0.030481797
44	0x3da7d639	0.081951566
45	0x3cf2e1a0	0.029648602
46	0x3c12e699	0.008966112
47	0xbd10724f	-0.035265263
48	0x3d0204d5	0.03174289
49	0xbd47c7c3	-0.048774492
50	0x3d08f0b7	0.03343269
51	0x3c095173	0.008381235
52	0xbbd90717	-0.0066231596
53	0x3c1792fe	0.009251354
54	0xbbfa9d1a	-0.0076481225
55	0xbb1e7a0e	-0.0024181637
56	0x3d3b34f1	0.045704786
57	0x3d82fb06	0.06395535
58	0xbd89e704	-0.06733516
59	0xbcbfc9a4	-0.02341158
60	0x3d34892a	0.044076122
61	0x3d0f4f96	0.03498801
62	0xbca24272	-0.019807074
63	0xbd2c3ad7	-0.0420483
64	0x3d789f90	0.060699046
65	0x3c2c1d60	0.01050505
66	0xb907b05b	-0.00012940301
67	0xbe48991a	-0.19589654
68	0xbdbdc080	-0.09265232
69	0x3c5ba7d2	0.013406711
70	0x3d475095	0.048660833
71	0x3c980715	0.018558064
72	0xbda4bdc9	-0.08044011
73	0x3cc43a5e	0.023953613
74	0x3cdbef66	0.026847553
75	0xbcde0faf	-0.027107088
76	0xbbd3774b	-0.00645343
77	0x3cd4ec40	0.025991559
78	0x3a63bcdd	0.00086875056
79	0x3ddb7f29	0.10717613
80	0x3dcb197b	0.099169694
81	0xbc5000d6	-0.012695512
82	0xbb942145	-0.0045205676
83	0xb9a69bce	-0.0003177807
84	0x3d412088	0.047150165
85	0xbcd2dc54	-0.025739826
86	0xbbafca73	-0.00536471
87	0xbc9202a9	-0.017823534
88	0xbc093822	-0.0083751995
89	0xbc7eb252	-0.015545445
90	0x3cda54b8	0.026651725
91	0xbca66000	-0.020309448
92	0x3c530e1b	0.012881781
93	0x3c4b69b7	0.012415341
94	0xbd0ffed3	-0.03515513
95	0xbcf75326	-0.030191015
96	0xbc9b4685	-0.018954525
97	0x3d9dee21	0.07711435
98	0x3bc3ac4e	0.005971468
99	0xbcd99c7b	-0.026563874
100	0xba0c6bfb	-0.00053566665
101	0x3dcbcb40	0.09950876
102	0x3c6ea943	0.014566722
103	0x3c3254ee	0.010884507
104	0xbc995b46	-0.01872028
105	0xbd9cdbd8	-0.07659119
106	0xbd89f1f5	-0.06735603
107	0x3db8e74c	0.090284914
108	0x3d18fc4a	0.037349977
109	0x3d45d5db	0.04829965
110	0x3cb10d7b	0.021612873
111	0x3ddc1fcc	0.10748252
112	0x3c5f365c	0.0136238
113	0xbb1eeb05	-0.002424897
114	0x3caa3f44	0.02078212
115	0x3d652405	0.055942554
116	0x3cf27c21	0.029600205
117	0xbce7e7d3	-0.028308785
118	0xb9a8c6e6	-0.00032191648
119	0xbd91ca36	-0.07118647
120	0xbc9336a1	-0.017970385
121	0x3d1df7e6	0.038566492
122	0x3d512435	0.05105992
123	0x3d3193bd	0.043353785
124	0x3d093aec	0.033503458
125	0xbd87782b	-0.06614717
126	0x3c4639ac	0.012098711
127	0x3d5b6105	0.053559322
