src/unitree_a1_go1_torch_template/jax_nn_weights/Dense_10_kernel.npy (npy, 65664 bytes, 1 tensors)

array f4 [128, 128]
00000000: 26f8 e6bd 54a5 783d 6d3c 75bd 1b3b 0f3c
00000010: c5be 443e 93eb 883e 3b6e e4bd 08ad b03d
00000020: f178 113e 8d80 523e 451b a13d c3d6 723d
00000030: 684c 8fbd 3ae7 95bd 1638 e53d ad63 80bd
00000040: 934e 2d3e a378 32be f981 1bbe c927 98bd
00000050: e12b 133e 00d0 0a3e 13b5 80be 3494 8cbe
00000060: 0d1a 9e3d 6414 3d3e fda6 04bc cd34 483c
00000070: 6fa0 f33d 9f6c 623e 202a c73b 9d63 b4bd
00000080: 683d ed3d 19b0 323d 20ec 9e3c 273f 843c
00000090: 6615 e0bd db73 633e f5a3 45be 61ab 66be
000000a0: 0f5e 383e 78ec d8bd baf2 6fbe a851 3a3e
000000b0: baad ea3d c487 0ebe 8a35 a03d d38d 69bd
000000c0: eebb 38be d92c a4bc b8c6 883d 9a84 173e
000000d0: 26a5 90bd 46f9 783e 0f75 c73d 343c 46bd
000000e0: cbab 80bd 3c04 643e 0746 94bd bdca c53d
000000f0: 25f6 f63b 979f 173d daa4 26bc 32d8 de3d
00000100: 21a6 adbb 574d 873e 765d 083d 6e84 78bc
00000110: b6b5 f53d 160f 4bbd 0a3a 4e3e 6bba 0bbe
00000120: 5cd0 58be 958a 853e b6ad 5cbe 4171 f2b8
00000130: 9bb7 953e fd14 603d d5d4 85bd f01a 27bd
00000140: 1612 28be c43b c9bc 00a2 31be e59e ac3d
00000150: 95cf 103b 2eb1 a23d b4f8 35bd a31f c93b
00000160: 915c 70bd 3c08 7cbd a10c 2b3e b71e c6bc
00000170: 35f1 c23d f1d3 b8be 4956 e8bd 8a65 46bd
00000180: 107b 3fbd e1b8 853d 32d7 febd cb3d 0cbe
00000190: 63e6 e23d 0ee7 14bd e27c 1dbd 4f68 acbc
000001a0: 808a 9bbd 2c57 0c3d 8b7c 493d 8442 903e
000001b0: e12f 353e 5d44 883d 87dd e23d bdc6 b8bd
000001c0: 3140 18be 8aae e4bc 53e7 953e ed4e ac3e
000001d0: f7be bd3b 5226 74bd 325b c2bd bc60 71bd
000001e0: ddfd 393e 3a28 c33d baf5 85bc 1af7 0d3e
000001f0: 5584 39be 73da 6fbc 6d72 f33d d847 e13d
00000200: 84fe 3bbe 960d 5fbe 69ae b5bd f888 733e
00000210: eed2 18bc 7a16 dfbb 70aa 883e a6f9 9fbd
00000220: b5d6 3bbe 5212 13be f39d 32be cd5e d2bd
00000230: 98bd 6c3d 4112 063e 9307 12bd 9fd6 bfbd
00000240: 1ee6 2bbe 0e34 1e3e 062e 9c3d 3e64 033e
00000250: 93f4 5b3e 3411 a93d d4d8 8a3d 8275 c3be
00000260: f81a 7c3d f900 683d 09ab f73c 353c 5e3e
00000270: b989 903e 1137 87bd ef7e bb3e 10d8 6f3d
00000280: 875c dfbe d310 843e 3a4b 80bd 88fd e8bd
00000290: ed68 a1bd 3e5a 1b3e 7703 8d3d 580c 11be
000002a0: cd95 783d a283 533d 0014 693d 927d 13be
000002b0: 0aac f23c 43ad 373e 4a3e fb3c de04 d8bd
000002c0: cc40 2a3e 8772 433d 91b8 6bbe f685 8a3e
000002d0: c799 a33e 1e52 2b3e c528 e3bc 95d6 063e
000002e0: 2b7e 9a3d ca56 48be aea4 223d e433 973d
000002f0: 5464 4d3d f22b 873e b758 143e a6cd c2bd
00000300: 2227 30be e696 893e 474e 0e3e 629f ca3e
00000310: 8233 13be 854f 493e ff3b a63d 84e4 9c3d
00000320: fe6d 5c3e 27ff 543c 92f6 aebe 89f5 96be
00000330: 03a9 c2bd eb07 5a3d b9cf b23e 9acc dbbb
00000340: dd0b d8bd 06fa 13be 4b93 2f3d ece3 e8bd
00000350: c7ba 25be 42a2 903d 47b7 603e 0c0f c53d
00000360: f0c1 1cbd 79cc 0cbe bb85 153e 8992 19be
00000370: ae3a 11be 123e d63c 9871 8bbe 5ac9 42be
00000380: cf49 64be 334d fabc bdad bf3d e834 3f3d
00000390: 66ec 153e df94 3a3d 3c57 44be 41f1 1dbe
000003a0: 666d 373d e1d6 a4bb da12 88be 98dd d7bc
000003b0: 897c d0bc cde6 b3bd 6f47 813e 04b0 6b3e
000003c0: cef3 ff3d 8772 b0bd dab2 94be 0887 28bb
000003d0: 3fa4 d8bd 602f 8dbd 4f95 a0bd 25bf 50bd
000003e0: 7bab 1ebe 1e58 c63d 198a 19b9 41ea bfbc
000003f0: c367 11ba 2355 cb3d e153 08be fe00 77bd
-0.11277799 0.060704544 -0.05987208 0.008742119 0.19213398 0.2674223 -0.11153837 0.08626753
0.14206292 0.2055685 0.078665294 0.059286844 -0.06996995 -0.073194936 0.11192338 -0.06269012
0.16924505 -0.17428832 -0.151863 -0.074294634 0.14372207 0.13555908 -0.2513815 -0.2745682
0.077198125 0.1846481 -0.008096454 0.01221962 0.11895835 0.22111748 0.0060780197 -0.08808062
0.11583978 0.04362497 0.019399703 0.016143395 -0.109415814 0.22212164 -0.19300826 -0.22526313
0.1800463 -0.10591978 -0.23432437 0.18195212 0.11458917 -0.13918978 0.07822712 -0.05702002
-0.1804044 -0.020040916 0.066785276 0.14796677 -0.070627496 0.2431384 0.09739124 -0.048397258
-0.06282767 0.2226724 -0.07239919 0.0965781 0.007536667 0.03701743 -0.01017114 0.1088108
-0.005299345 0.26426193 0.033292256 -0.015168292 0.11997549 -0.049574934 0.20139328 -0.13645332
-0.21173233 0.26082292 -0.2155064 -0.000115605544 0.29241642 0.054707516 -0.06534735 -0.040797174
-0.16413149 -0.024564631 -0.17346954 0.08428744 0.0022096385 0.079439506 -0.044426635 0.0061378046
-0.05868203 -0.06153129 0.16704036 -0.024184568 0.09518663 -0.36099198 -0.113445826 -0.04843668
-0.04674822 0.065294035 -0.12443389 -0.13695447 0.11079099 -0.036353163 -0.038449176 -0.021045832
-0.07594776 0.03426282 0.04919104 0.28175747 0.17694046 0.06653664 0.11077409 -0.09022281
-0.14868237 -0.027915258 0.2927805 0.33653966 0.005790587 -0.059606858 -0.094900504 -0.058930144
0.18163247 0.09529157 -0.016352523 0.13863793 -0.18116887 -0.014639485 0.11887059 0.11000031
-0.18358809 -0.21782526 -0.08871157 0.23782718 -0.009327633 -0.0068080993 0.26692533 -0.078112885
-0.18343623 -0.14362457 -0.17443065 -0.10271988 0.057798 0.13092901 -0.035651755 -0.093671076
-0.16787001 0.15449545 0.07625966 0.12831208 0.21480016 0.08255234 0.06779638 -0.3817559
0.061549157 0.056641553 0.030232923 0.21702655 0.28230074 -0.066023 0.3662028 0.058555663
-0.4362528 0.25794086 -0.06264348 -0.11376482 -0.07881341 0.15171143 0.068854265 -0.14164865
0.060689736 0.051639207 0.05690384 -0.1440337 0.02962305 0.17937188 0.03066935 -0.10547803
0.1662628 0.047716644 -0.23019625 0.2705533 0.3195326 0.16730544 -0.027729401 0.13167794
0.07543596 -0.19564357 0.039707832 0.07382944 0.05014451 0.26400715 0.14486967 -0.095118806
-0.17202428 0.2687294 0.13897048 0.39574724 -0.14375117 0.1965924 0.08116912 0.076607734
0.21526334 0.013000286 -0.34172493 -0.29484203 -0.09504893 0.053230207 0.34924105 -0.00670774
-0.10549138 -0.14450845 0.04286508 -0.11371598 -0.16184531 0.07062198 0.21944915 0.096220106
-0.03827089 -0.13749875 0.14601795 -0.14997305 -0.14182541 0.026152644 -0.27235103 -0.19022122
-0.2229378 -0.03055439 0.0935931 0.046681315 0.1464096 0.04555213 -0.19173902 -0.15424062
0.044782065 -0.0050304984 -0.26576883 -0.026350781 -0.025450008 -0.08784256 0.25249812 0.23016363
0.12497674 -0.08615594 -0.29042703 -0.002571525 -0.105782025 -0.06893802 -0.07840978 -0.05096354
-0.15495102 0.09684776 -0.00014642662 -0.02342713 -0.0005546773 0.09928348 -0.13313247 -0.06030368
