src/unitree_a1_go1_torch_template/jax_nn_weights/Dense_10_bias.npy (npy, 640 bytes, 1 tensors)

array f4 [128]
00000000: 638e 3d3c b606 9f3c 8b2f a3bc 993c a8bb
00000010: 74fb 32bd cbdf 083e db2f 44bc 4c38 a63d
00000020: 75cd b2bd 8976 6d3b bdf5 06bb e72a 2bbd
00000030: 2441 78bc 1c81 f3bb 53ba 6e3d 32c1 473c
00000040: 7e74 33bd c5b9 ad3a 0d5f 343d 7857 44bb
00000050: d417 593a ba38 a93c 0280 aebb 9c84 e8bb
00000060: cf49 be3c c358 8a3c 31d9 b4bc f7f0 853d
00000070: 37fd 32bd 36e0 31bc 0b2d 21bd 8881 2abd
00000080: 9729 54bc af4b 10bc 334c b23c 35f5 3c3d
00000090: 9aa1 453c 5d27 a63c 29a4 74bc 96c7 9fbc
000000a0: 485e 263d 4716 933c da02 25bd 0402 c43c
000000b0: dffb a43d 29f0 59bd 8d36 553d 7a70 6c3c
000000c0: bd72 55bd 8321 383d b664 55be 4053 073d
000000d0: 6c33 a2bc 3af1 d13c 3b87 3e39 578a 8ebd
000000e0: 939a 49bd 9a0d d2bc d0c2 83bd 6d9b 053c
000000f0: 259d 883d a867 14bb bdc0 5d3c 5955 203c
00000100: 3609 42bc ea03 ef3c b9df 413d 2f69 91bd
00000110: f88a f93d c9e5 023d 3b8c 06bd 7b15 bd3b
00000120: 7ed1 11bd 24fd d33d 589b 05bd fe29 323d
00000130: e663 2dbd 88eb 153d a3cc dc3d 1518 d63c
00000140: 90d0 f53c 8473 05bd a6ee 643c 9de5 593c
00000150: 3dc6 e4bc eb4d bfbc 72be 9dbc 6e59 4d3c
00000160: 031b 0ebd 1928 ebbc c9d0 e33d dfd3 44bd
00000170: fa9a 343b d735 fcbc 98d8 35bd 0833 d23a
00000180: 8bac 84bd 5aa1 48bc d37d 37bc 4b53 00bb
00000190: 94de 68bd 3c10 d5bd 6528 05bd 6e7d 91bd
000001a0: 38d7 853c 6cde fdbb 21d0 81bd 9f48 aa3d
000001b0: 72d7 303c 4a43 413d f5f7 363d 7bc2 493d
000001c0: f54c 35bd da13 29bd c158 893b 8970 b23d
000001d0: 1cbd 183d 2053 a9bd 0cb4 a83c 2cbf e6bc
000001e0: d518 bf3c 2b18 42bd 3bfb c9bc bfd0 08bd
000001f0: 3057 b83c 2f9b 9dbc 67d2 633c 86c2 ca3d
0.011569592 0.01941238 -0.019920131 -0.005134177 -0.043696836 0.1336662 -0.0119743 0.081162065
-0.08730594 0.0036233983 -0.0020593249 -0.04178896 -0.0151522495 -0.0074311625 0.05828316 0.012192057
-0.043812267 0.0013254216 0.04403596 -0.0029959362 0.0008281444 0.020656932 -0.0053253183 -0.0070958864
0.023228554 0.016888028 -0.022076221 0.06540101 -0.043698516 -0.010856679 -0.039349597 -0.041627437
-0.012949369 -0.008807107 0.02176485 0.046132285 0.012062455 0.020282442 -0.014931717 -0.01950435
0.040617257 0.017954959 -0.040285923 0.023926742 0.08055853 -0.05320755 0.052053977 0.014431113
-0.052111376 0.044953834 -0.208392 0.033038378 -0.01979991 0.025627721 0.0001817019 -0.0695998
-0.04921968 -0.025641251 -0.06433642 0.008154732 0.06670598 -0.0022644792 0.013534722 0.0097859735
-0.011843016 0.029176671 0.0473325 -0.0710014 0.12184709 0.03195742 -0.032848578 0.005770383
-0.035600178 0.10351017 -0.03261885 0.043497078 -0.0423316 0.036601573 0.10781219 0.02613453
0.030006677 -0.032580867 0.013972914 0.013299373 -0.027926559 -0.023352584 -0.01925585 0.012533529
-0.03469373 -0.028705643 0.11123807 -0.04805362 0.0027558194 -0.030787392 -0.044396013 0.0016036937
-0.064782225 -0.0122455 -0.011199432 -0.0019580896 -0.056852892 -0.10403487 -0.032509226 -0.07104002
0.016337976 -0.007747462 -0.063385256 0.083146326 0.010793554 0.047183312 0.044670064 0.049257737
-0.044262845 -0.041278698 0.0041914885 0.08712871 0.037289724 -0.08267808 0.020593666 -0.02816733
0.02332727 -0.04738633 -0.024655929 -0.0334022 0.022502512 -0.019239036 0.013905144 0.09900384
