src/unitree_a1_go1_torch_template/jax_nn_weights/Dense_7_kernel.npy (npy, 524416 bytes, 1 tensors)

array f4 [512, 256]
00000000: ef73 a5bd 9d8e 6cbe 70f5 273d 7f33 953d
00000010: 5477 733c 5b69 a93e 7786 59be b196 5d3e
00000020: 14b7 0f3e 3dde 0dbe 3ebe ec3e 2f32 ac3e
00000030: 143d bf3d b365 e7bd 3245 45be 3162 cb3e
00000040: e82c b7bb bcaf dabd ea84 9a3c a0e7 173e
00000050: 0198 d43c 7e57 3ebe 4db2 943e 2946 9e3d
00000060: 2168 86be 0f9b cf3d 307b 02bd e2c5 133e
00000070: 3cc4 273e b15e 17be 6336 da3e ddeb 5e3d
00000080: 45c7 4a3e ff70 ba3c 5342 3ebe 8010 1f3e
00000090: cc60 7c3d 2901 2bbd bbb5 cbbc 3467 6fba
000000a0: e3a5 143e f467 0cbe 1bb0 e5bb da20 da3d
000000b0: dd37 c5be effd e33c 7dd5 bd3e 297d 003e
000000c0: 1972 50bd d7f2 2fbe c6c9 093e 5259 233f
000000d0: 2352 bf3e 2b0f 603e def2 403d 68e7 573d
000000e0: fe4d f4bc 8f86 003e 9d7c e23d 8dc2 38bb
000000f0: 08b3 cfbc 0674 2f3c 419c b0bd 6dd6 193e
00000100: dc25 1e3e a22d b03e ccd6 dfbd 650e 403e
00000110: 1224 b43d f32e 44be 0435 273d e833 db3d
00000120: 9ed0 ddbd cc9d ea3d e047 4b3e ce02 cfbd
00000130: b405 0b3e ba90 a43c f4d0 b8bb 04ad 5e3d
00000140: 8ba3 123d 5657 23be 4026 de3c 0539 013e
00000150: 6a17 2c3c dc18 643e 11e9 523c c5a6 dbbd
00000160: d5b1 e13d 07bf 303e 86ab 89ba ff5e 023d
00000170: 3016 ae3e 3ca2 503c 90fd 5d3e a567 a2bd
00000180: 7a00 1cbe 1a0e ca3c 6524 bbbd a568 41be
00000190: c432 80be 0b21 ea3e ba4f 21be 67f3 48be
000001a0: 98f8 1a3c c793 93be 5637 7abb 5e30 9c3e
000001b0: 2602 4f3e 3515 353e 6b01 743d ec85 8d3e
000001c0: fdca fa3c a4ee 73be 81cd 063f 4928 5a3c
000001d0: 2e23 023e 3c23 a33c b5ed bfbd 5fe1 b3bd
000001e0: dadf 89be bd8d cbbe 168f 9dbe 8ddc 5a3d
000001f0: 1d74 273c 31fc f93d 501e b8bc 8ffb 313e
00000200: aaf2 9bbd 4635 dc3d 204c 0cbc 177d 18be
00000210: 7820 17bb bc27 a8bd ec15 373c 2c9f 0f3e
00000220: 72f0 9dbd 15e7 913e fb99 46bc 8d0c 6d3e
00000230: 0bf8 bc3c 5923 97bd ff07 8b3e 9dca 7ebe
00000240: 4e17 d43c 5411 fc3d fb63 8c3e f822 143d
00000250: 85c5 473f 0c7d e8bc fd69 dfbd a642 80bc
00000260: 026b 183e 2ab2 c53b 6adc 943e b418 0b3f
00000270: 8ed2 003f 599d f5bc fcc5 2abe 2717 10bc
00000280: 3084 4a3e 6d4e 823e 2aea e1bb 3e41 523d
00000290: f2d8 dabd c1d1 cdbc 9b2d 3bbe 0d29 48bd
000002a0: ccb0 95bd d269 47be a9a7 1fbc 9475 0b3e
000002b0: 9f79 6a3c 3cc7 7f3c 8df7 fcbd c3bc b8bc
000002c0: 090f 7c3d 1589 093e 94f9 633c 52d4 a13d
000002d0: 7d67 90bd 24e6 22be daa3 bfbe c5bc 7e3e
000002e0: 5ca5 dd3e 75d3 2ebd 0e8a 893d 3f33 5bbe
000002f0: 898f 133e 461c d0bd d65a 8c3e d0ca 5c3e
00000300: 224e a23d e1c5 44be 679c c4bd 0335 bebd
00000310: 2907 c33e 9b5a 0f3e ef60 e53e 0482 a93c
00000320: 2e59 01bd 082c 603e 4041 493e b850 5b3e
00000330: fcd8 bdbd 22d9 19be 89c3 853e 9e99 91be
00000340: bc0f bb3d 3f00 ab3e ffeb 4fbe 35d9 c23e
00000350: 07f9 17be 420c e4be 60bd c6bd 42b7 863d
00000360: ddc0 8f3d 43ad 6bbd 1452 7f3e f1d4 cebe
00000370: 3551 1a3e 139f 453c fe2b 80bd 44b3 fd3d
00000380: cf2c aa3e ba24 043e f5b1 cb3e 2755 56bd
00000390: db1c a7bd 38ab c93b 9b34 29be c779 9ebd
000003a0: 9a6c a03d d0f4 133e fc17 5dbe f304 8c3d
000003b0: 020f 66be e797 f7bc 38a7 5fbe 5f5c ef3d
000003c0: 5dea ff3d f16e 1fbd d3d4 a03d 4749 de3e
000003d0: a285 133e f2c6 09be f722 593d b906 b0be
000003e0: 7fa7 4cbd 733e 1abc 7aab 25be eddb d13d
000003f0: b770 3d3d 49f5 6cbe 2973 943e f6e4 f5bc
-0.08078753 -0.23101278 0.04100555 0.07285213 0.014859993 0.33088192 -0.212427 0.21639515
0.14034683 -0.13854308 0.46238893 0.33632037 0.093378216 -0.112986945 -0.19264677 0.39723352
-0.00559007 -0.1067805 0.018862206 0.14834452 0.025951387 -0.18588063 0.29042283 0.07728226
-0.2625132 0.10136997 -0.031855762 0.14430955 0.16383451 -0.14782216 0.4261962 0.054424156
0.19802578 0.022758959 -0.18579988 0.15533638 0.06161575 -0.041749153 -0.02486693 -0.0009132505
0.14516406 -0.1371153 -0.007009519 0.10650797 -0.38519183 0.027831046 0.3707694 0.12547745
-0.050890062 -0.1718248 0.13455877 0.63808167 0.37367353 0.21880786 0.047106616 0.05271092
-0.029822346 0.1255133 0.11058924 -0.0028192133 -0.025353923 0.0107088145 -0.08623553 0.15023203
0.1544413 0.34409815 -0.10929641 0.18755491 0.08795942 -0.19158535 0.040822044 0.1070326
-0.10830806 0.114558786 0.19851637 -0.10107957 0.13576394 0.020088542 -0.0056401435 0.05436422
0.035800498 -0.15951285 0.027117848 0.12619407 0.010503629 0.22275108 0.01287295 -0.10725168
0.11020247 0.17260371 -0.0010503388 0.031828877 0.34001303 0.012733992 0.21678758 -0.07929925
-0.15234557 0.024664927 -0.09137801 -0.18887575 -0.2503873 0.45728335 -0.1575307 -0.196241
0.009458683 -0.28823683 -0.0038179955 0.3050565 0.20215663 0.17683871 0.059571665 0.27641237
0.03061437 -0.23821503 0.52657324 0.013315269 0.12708732 0.019914262 -0.09371511 -0.087832205
-0.26928598 -0.39756575 -0.30773228 0.05343299 0.010220555 0.12206305 -0.022475392 0.17381118
-0.07614644 0.107523486 -0.0085630715 -0.14891468 -0.0023060124 -0.08210704 0.01117466 0.14025563
-0.07711877 0.28496614 -0.012121673 0.23149319 0.023067495 -0.07379789 0.27154538 -0.24881978
0.025890019 0.123079926 0.2742003 0.03616616 0.78035766 -0.02837994 -0.109088875 -0.01565678
0.1488457 0.0060332017 0.29074413 0.5433457 0.5032128 -0.029982256 -0.16677088 -0.008794582
0.19776988 0.2545046 -0.0068943696 0.05133175 -0.1068591 -0.025124433 -0.18279116 -0.048867274
-0.07309112 -0.19473961 -0.009744563 0.13619071 0.014311223 0.015611466 -0.12351904 -0.022550946
0.061537776 0.13431199 0.0139144845 0.07901825 -0.07050989 -0.15908104 -0.37429696 0.24876697
0.43290222 -0.04268213 0.06715785 -0.21406268 0.14410223 -0.10161643 0.27413052 0.21561742
0.07925059 -0.1921611 -0.09600144 -0.09287455 0.380914 0.13999407 0.44800517 0.02069188
-0.03157919 0.21891797 0.19653797 0.2141751 -0.09269902 -0.15024236 0.26125744 -0.28437513
0.091338605 0.33398625 -0.20304869 0.3805634 -0.1484109 -0.44540602 -0.09704089 0.065779224
0.070192076 -0.057538282 0.24933654 -0.40396836 0.1507004 0.012061852 -0.06258391 0.12387708
0.3323731 0.12904635 0.39784208 -0.0523273 -0.081598006 0.006154444 -0.16523974 -0.07738071
0.07833214 0.14448857 -0.2159118 0.068368815 -0.22466663 -0.0302238 -0.21841133 0.1168754
0.12495873 -0.03892416 0.07853093 0.4341528 0.14406446 -0.13454798 0.05301186 -0.3438013
-0.049964424 -0.009414303 -0.16178694 0.10247026 0.04625007 -0.23140444 0.2899411 -0.030016404
