src/unitree_a1_go1_torch_template/jax_nn_weights/Dense_6_bias.npy (npy, 2176 bytes, 1 tensors)

array f4 [512]
-0.020738164 0.0008830946 -0.0039820448 0.07427071 -0.022882504 -0.013708299 0.032905657 -0.018701052
-0.019800672 -0.0135033475 0.14826313 0.0059094233 0.01676036 0.033515576 0.016670931 -0.01606829
-0.03191624 0.016790831 0.02012451 -0.015149902 0.022443779 0.0070769433 -0.016279884 0.018577334
0.030168967 0.010953256 0.010476662 0.00049914967 0.03724608 -0.037744276 0.013762583 0.036847077
0.011857146 -0.0011686503 -0.025944235 0.046813898 0.0135070495 0.061303817 0.045182902 0.03109506
0.031936698 0.043237835 -0.008301627 -0.009786893 -0.014760624 -0.056474358 0.0109840175 -0.04104459
0.03261798 -0.008859205 -0.044949643 0.10404412 0.042496417 -0.012782646 -0.007267132 0.044288326
-0.016001914 0.010695017 0.024935622 0.041289482 0.03493183 -0.018334923 0.013249167 -0.054737076
0.02510036 -0.006585749 -0.013303936 0.028655022 0.09762228 0.0068505686 -0.0006090709 0.010419729
0.026089394 0.028614279 -0.030842861 -0.039179157 0.008999452 -0.034307726 0.029994186 0.053508494
0.048723817 -0.05683231 -0.020360528 0.045890138 -0.0070416173 0.0647341 0.023600422 -0.04480104
-0.040604703 -0.013921264 0.023303874 -0.006398267 0.0062299706 0.049777564 0.02293064 -0.0428291
0.018084994 -0.0078266645 0.047895722 0.060829904 0.0048626484 0.022421876 -0.031990018 0.0051708887
0.00015118768 0.00034583613 0.048060317 -0.010538866 0.015557698 0.01673521 0.03434347 -0.025579106
0.013938134 -0.012233562 0.047243793 -0.016517866 0.016792927 -0.01355852 -0.025851306 0.009170354
-0.019857561 0.0074180034 -0.03532666 -0.009690861 0.023362514 -0.0016676144 0.011138546 -0.058910422
-0.033354536 -0.0025970456 -0.034488026 -0.022826081 -0.032245893 -0.002195791 0.06004141 0.04226062
0.030532297 0.022584334 -0.05410092 0.09897053 0.06258268 -0.04313597 -0.020008808 -0.0046391618
0.04108095 0.036686223 -0.03874438 0.05010236 0.043109875 -0.06822403 0.025967969 0.03855913
-0.0015905709 -0.05568173 -0.04964206 0.05226127 0.00096838316 0.009035081 -0.04245153 0.072025575
0.045831025 -0.020228151 -0.05648718 -0.0030407007 0.013273898 0.016349867 -0.006682603 0.016000615
0.05223892 -0.012332591 0.038013462 0.006200223 0.010928525 0.041432213 0.06968227 0.0536462
0.011763244 -0.026250565 -0.027386693 0.041452214 0.010982318 0.022427237 -0.019600507 0.013094415
0.027852774 -0.026606655 0.0053441515 0.009953002 -0.039592866 0.15986536 0.11549261 0.013716459
0.0012417693 0.046780095 -0.043867152 0.022264654 -0.03815602 -0.0069710948 -0.026860163 -0.010680729
-0.02976274 0.02540636 -0.005492816 0.017551566 -0.015388309 0.035143696 -0.00035111536 1.0071415e-05
-0.010451862 0.024470631 -0.052020416 -0.0052794083 0.014090763 -0.006163385 0.077419914 0.0117487945
-0.0045185573 -0.020123145 -0.027876072 0.012715853 -0.050286263 -0.01914255 0.052043352 -0.0058090175
-0.04299992 0.008505194 0.024220793 -0.024463808 0.027254025 -0.05001058 -0.026866077 0.017367575
0.023364788 0.04093004 0.061889093 0.06131929 -0.027744679 -0.022311054 -0.0470141 -0.0033641462
0.016866423 0.056302954 0.02191996 0.044860493 -0.027762767 0.014139083 0.0012164005 0.037029944
-0.035227653 -0.0065607335 -0.011236992 0.11896442 0.085914366 0.008762462 0.020572037 0.04105007
00000000: 15e3 a9bc 7a7f 673a d07b 82bb 3e1b 983d
00000010: 1774 bbbc c698 60bc 15c8 063d f332 99bc
00000020: 0535 a2bc 253d 5dbc 4ad2 173e d6a3 c13b
00000030: 064d 893c a147 093d 7a91 883c a6a1 83bc
00000040: 9aba 02bd ed8c 893c 28dc a43c 4b37 78bc
00000050: 04dc b73c b4e5 e73b 645d 85bc 7e2f 983c
00000060: e924 f73c 4975 333c 4ea6 2b3c 5ed9 023a
00000070: 588f 183d be99 1abd 757c 613c f6ec 163d
00000080: 7a44 423c 662d 99ba 0189 d4bc eebf 3f3d
00000090: ac4c 5d3c b619 7b3d b511 393d 11bb fe3c
000000a0: 0ed0 023d 281a 313d 8c03 08bc 3459 20bc
000000b0: 8bd6 71bc a851 67bd 4ff6 333c 5f1e 28bd
000000c0: 6e9a 053d 3326 11bc 1e1d 38bd 1515 d53d
000000d0: b910 2e3d 4e6e 51bc 1f21 eebb ad67 353d
000000e0: 7216 83bc 273a 2f3c ca45 cc3c 291f 293d
000000f0: ae14 0f3d 1f33 96bc 0913 593c fc33 60bd
00000100: 459f cd3c 44cd d7bb c1f8 59bc f0bd ea3c
00000110: 31ee c73d bc7a e03b 0eaa 1fba 83b7 2a3c
00000120: 6db9 d53c 7e68 ea3c 2baa fcbc 537a 20bd
00000130: 7072 133c 4286 0cbd 5eb6 f53c b92b 5b3d
00000140: a092 473d ffc8 68bd 1fcb a6bc 4cf7 3b3d
00000150: 5ebd e6bb 5093 843d ac55 c13c 4c81 37bd
00000160: 1e51 26bd 0316 64bc c4e7 be3c 8ea8 d1bb
00000170: c824 cc3b 8fe3 4b3d 0ad9 bb3c 916d 2fbd
00000180: fb26 943c 693b 00bc 4e2e 443d c728 793d
00000190: da56 9f3b 15ae b73c f707 03bd 8f70 a93b
000001a0: 2288 1e39 5751 b539 e5da 443d 35ab 2cbc
000001b0: b7e5 7e3c 4718 893c bdab 0c3d 468b d1bc
000001c0: c55c 643c 476f 48bc b582 413d 7a50 87bc
000001d0: 5291 893c 8e24 5ebc 1ec6 d3bc 413f 163c
000001e0: 53ac a2bc b912 f33b b0b2 10bd 6bc6 1ebc
000001f0: be62 bf3c db93 daba 737e 363c 0e4c 71bd
00000200: c49e 08bd 3233 2abb 5143 0dbd c3fd babc
00000210: 4514 04bd 43e7 0fbb fbed 753d 7919 2d3d
00000220: de1e fa3c c802 b93c ed98 5dbd 10b1 ca3d
00000230: 592b 803d 58af 30bd 83e9 a3bc 1c04 98bb
00000240: 8044 283d 4b44 163d 6db2 1ebd 2238 4d3d
00000250: fb93 303d 0ab9 8bbd c7ba d43c 2ef0 1d3d
00000260: b47a d0ba 8712 64bd 7955 4bbd ea0f 563d
00000270: 18db 7d3a e007 143c a8e1 2dbd 2582 933d
00000280: 50b9 3b3d 82b5 a5bc 1a5f 67bd 7e46 47bb
00000290: c37a 593c 28f0 853c bdf9 dabb b913 833c
000002a0: 7af8 553d a30e 4abc 01b4 1b3d 3e2b cb3b
000002b0: 8e0d 333c d3b4 293d 94b5 8e3d 1ebc 5b3d
000002c0: 9fba 403c 6d0b d7bc 0f5a e0bc ccc9 293d
000002d0: 2eef 333c 53b9 b73c 3e91 a0bc f589 563c
000002e0: 802b e43c 33f6 d9bc fe1d af3b eb11 233c
000002f0: 212c 22bd bfb3 233e 6487 ec3d 00bb 603c
00000300: ddc2 a23a 7c9c 3f3d 0bae 33bd 5d64 b63c
00000310: 7d49 1cbd c86d e4bb d809 dcbc 39fe 2ebc
00000320: fdd0 f3bc 0021 d03c 15fd b3bb 4dc8 8f3c
00000330: 3f1f 7cbc d6f2 0f3d e815 b8b9 66f8 2837
00000340: 493e 2bbc a276 c83c 5c13 55bd e3fe acbb
00000350: f2dc 663c 39f6 c9bb 558e 9e3d 047e 403c
00000360: 6810 94bb 4bd9 a4bc 5c5c e4bc 2756 503c
00000370: f8f8 4dbd d6d0 9cbc 692b 553d 9259 bebb
00000380: af20 30bd 5f59 0b3c af6a c63c 5368 c8bc
00000390: d543 df3c e5d7 4cbd 3f16 dcbc 7246 8e3c
000003a0: 8367 bf3c 42a6 273d 6b7f 7d3d f029 7b3d
000003b0: cf48 e3bc acc5 b6bc db91 40bd 0279 5cbb
000003c0: 742b 8a3c ed9d 663d 7d91 b33c a3bf 373d
000003d0: be6e e3bc 9da7 673c a16f 9f3a b6ac 173d
000003e0: df4a 10bd 6cfb d6bb 5c1b 38bc 9ea3 f33d
000003f0: dff3 af3d 6e90 0f3c b086 a83c 1e24 283d
