src/unitree_a1_go1_torch_template/jax_nn_weights/Dense_11_kernel.npy (npy, 133248 bytes, 1 tensors)

array f4 [260, 128]
-0.09357786 0.14637901 0.01703823 0.02564722 0.05257701 -0.41627926 0.115073204 0.074154735
0.09253289 0.20065889 -0.0258394 -0.07437356 0.06349386 -0.17618152 0.21247274 -0.13760713
-0.13279754 -0.055649593 -0.13070194 -0.2601095 0.2568556 -0.0026778756 -0.06405889 0.07634029
-0.048851747 -0.12687376 0.112130284 0.06885979 0.19740626 -0.2726939 0.015002193 -0.13616072
-0.006377651 0.052636813 0.018764941 -0.14525488 0.032393057 -0.019978361 0.04984067 -0.08550245
0.01972703 -0.02517415 0.0788052 -0.02490523 -0.07553635 0.1690503 -0.07788762 0.10376585
-0.1594712 0.06981248 -0.12091865 -0.13359982 0.007746542 0.14361252 -0.05287803 -0.11203806
-0.31498054 -0.15647365 -0.037307523 -0.0031582648 0.07988618 0.12767659 -0.09491069 0.01914778
-0.0073350626 0.22037436 -0.13673791 0.0129723195 -0.07081769 -0.09799527 -0.10825059 -0.09628048
0.018684668 0.07578401 -0.12768191 0.47434154 0.050975572 -0.23208371 -0.065735124 -0.11507971
-0.22485237 0.42649773 -0.12994196 0.08608301 0.10996162 -0.04404878 -0.009302258 0.102719635
-0.1609495 0.10999739 -0.05549141 0.06728471 0.23053455 -0.105490685 0.0016852434 0.20064189
0.060311165 -0.11425797 -0.106225975 0.100962445 -0.03632045 -0.033994332 0.13695593 0.17390943
0.009600283 -0.015618356 0.007606854 0.06341421 -0.059222467 0.028365083 -0.044589654 0.121285364
0.1268166 0.01945046 0.022459468 0.09273098 -0.16576786 0.13262685 -0.062469568 0.0791888
-0.16773613 0.1964047 0.07834185 0.0006926594 -0.15838598 0.17621331 -0.12273281 0.04959528
0.02282568 -0.059837516 0.10923204 -0.1006261 0.028347775 0.056640476 0.11748621 0.101434454
-0.0038665594 -0.022253742 0.025994323 -0.052505035 0.2180399 0.02126998 -0.02544701 0.070244
0.0056885458 -0.13551196 0.044332575 -0.008847405 0.26592907 0.042333554 -0.025843235 -0.011477145
-0.020888377 -0.12263597 0.03451869 -0.16001338 -0.10434946 0.007598164 -0.0014247606 -0.0129325
-0.112445615 -0.007131972 -0.05818284 -0.26812187 0.027959496 0.035969783 0.06813124 0.03504114
0.0394054 0.12597235 0.017008075 0.21925126 0.048524026 0.26972747 0.038988255 -0.08550755
-0.0077006407 0.09709181 -0.015456862 -0.333661 -0.025636684 0.0076067676 -0.17624763 0.10459518
0.123549834 0.25274473 0.19368741 0.09097149 0.20790577 -0.089869514 -0.0427417 0.042795353
-0.09694548 -0.06853347 0.15703781 -0.17089999 -0.021153677 -0.16924718 -0.28052586 -0.047371507
-0.0407315 -0.14346933 -0.077579536 0.0896073 0.049141858 0.053507753 -0.013050442 -0.103999406
0.02667598 0.015518506 0.06365273 -0.011479114 -0.058300834 -0.105560236 -0.0143544115 0.022057667
-0.1224695 0.009827059 0.05380533 -0.13463087 -0.005557749 -0.0042980565 0.04305447 -0.045379214
-0.7131179 -0.12506981 0.21118599 0.13785866 0.15563391 -0.10933249 -0.13684365 -0.1445892
-0.05016137 0.39583102 -0.11347737 0.121292435 0.18581402 0.118633814 -0.14757395 -0.16858041
0.1748606 0.12721755 -0.061547983 -0.08281056 0.1487062 -0.11063892 0.02804846 -0.060579866
-0.014276621 0.027086295 0.11216349 0.051669236 0.19790313 0.06436044 0.013163105 -0.030661209
00000000: c0a5 bfbd 61e4 153e c293 8b3c 1e1a d23c
00000010: fe5a 573d 8e22 d5be 80ab eb3d 70de 973d
00000020: e281 bd3d 8679 4d3e 26ad d3bc 2a51 98bd
00000030: 1209 823d ee68 34be 7492 593e e2e8 0cbe
00000040: 14fc 07be d4f0 63bd bbd6 05be 132d 85be
00000050: 9482 833e 4c7f 2fbb 4f31 83bd 4c58 9c3d
00000060: c518 48bd 32eb 01be 90a4 e53d 5d06 8d3d
00000070: de24 4a3e 899e 8bbe c2cb 753c b76d 0bbe
00000080: 9dfb d0bb b399 573d efb8 993c b2bd 14be
00000090: 95ae 043d a9a9 a3bc bb25 4c3d e91b afbd
000000a0: 959a a13c 053a cebc 9f64 a13d 0e06 ccbc
000000b0: cdb2 9abd 861b 2d3e 8b83 9fbd 3183 d43d
000000c0: 6b4c 23be d8f9 8e3d 32a4 f7bd 64ce 08be
000000d0: b4d6 fd3b 290f 133e a296 58bd 3674 e5bd
000000e0: 2145 a1be a13a 20be c6cf 18bd e4fa 4ebb
000000f0: 5e9b a33d a7bd 023e 8960 c2bd cedb 9c3c
00000100: f75a f0bb d1a9 613e 0605 0cbe da89 543c
00000110: dd08 91bd beb1 c8bd 7cb2 ddbd b32e c5bd
00000120: 9710 993c a634 9b3d 0cbf 02be e5dc f23e
00000130: c3cb 503d 5aa7 6dbe 23a0 86bd e9ae ebbd
00000140: b33f 66be e95d da3e 810f 05be 4a4c b03d
00000150: 8f33 e13d 7e6c 34bd 7f68 18bc ac5e d23d
00000160: f2cf 24be 5046 e13d f64a 63bd 91cc 893d
00000170: 4011 6c3e 800b d8bd 63e3 dc3a 1175 4d3e
00000180: d708 773d 1500 eabd 018d d9bd 66c5 ce3d
00000190: c1c4 14bd a43d 0bbd 2d3e 0c3e 5015 323e
000001a0: 814a 1d3c 22e4 7fbc eb42 f93b 4fdf 813d
000001b0: 4293 72bd e45d e83c a4a3 36bd 7664 f83d
000001c0: 36dc 013e 9256 9f3c ebfc b73c bde9 bd3d
000001d0: 0dbf 29be 55cf 073e 17e0 7fbd bd2d a23d
000001e0: 05c3 2bbe 501e 493e b171 a03d 9693 353a
000001f0: ef2f 22be 4371 343e 575b fbbd 6c24 4b3d
00000200: ecfc ba3c 2f18 75bd 0cb5 df3d 0f15 cebd
00000210: 9839 e83c d8ff 673d 9c9c f03d debc cf3d
00000220: 1a66 7dbb 7b4d b6bc 0cf2 d43c 850f 57bd
00000230: da45 5f3e 623e ae3c 3f76 d0bc 16dc 8f3d
00000240: fb66 ba3b a6c3 0abe 1396 353d b5f4 10bc
00000250: db27 883e f365 2d3d 31b5 d3bc a30a 3cbc
00000260: 1a1e abbc 9128 fbbd 7863 0d3d 8cda 23be
00000270: 2bb5 d5bd 05fa f83b 08bf baba d6e2 53bc
00000280: e349 e6bd 51b3 e9bb 2151 6ebd 4547 89be
00000290: 500b e53c 0d55 133d 6488 8b3d 4c87 0f3d
000002a0: 8f67 213d e5fe 003e 8554 8b3c 6783 603e
000002b0: 21c1 463d b819 8a3e 26b2 1f3d 951e afbd
000002c0: a855 fcbb 12d8 c63d c73e 7dbc 9dd5 aabe
000002d0: 0604 d2bc 3142 f93b 427a 34be ff35 d63d
000002e0: b207 fd3d c267 813e fe55 463e 434f ba3d
000002f0: 40e5 543e 820d b8bd ec11 2fbd 2e4a 2f3d
00000300: 5a8b c6bd 475b 8cbd 85ce 203e 6800 2fbe
00000310: 7a4a adbc 224f 2dbe 16a1 8fbe a008 42bd
00000320: 13d6 26bd a0e9 12be 05e2 9ebd 0884 b73d
00000330: f948 493d f22a 5b3d 85d1 55bc a4fd d4bd
00000340: 9687 da3c 5541 7e3c 5d5c 823d e512 3cbc
00000350: dbcc 6ebd f72f d8bd c42e 6bbc 48b2 b43c
00000360: 4ad1 fabd ac01 213c fa62 5c3d addc 09be
00000370: c71d b6bb b6d6 8cbb e259 303d 8edf 39bd
00000380: e58e 36bf 4d12 00be 2441 583e d22a 0d3e
00000390: 7f5e 1f3e b6e9 dfbd be20 0cbe 310f 14be
000003a0: 0276 4dbd 5daa ca3e d366 e8bd 2b68 f83d
000003b0: 0846 3e3e 49f6 f23d a01d 17be 58a0 2cbe
000003c0: a80e 333e 5145 023e bd19 7cbd 9598 a9bd
000003d0: 7046 183e a896 e2bd e2c5 e53c 9822 78bd
000003e0: 7de8 69bc 14e4 dd3c f9b5 e53d 1fa3 533d
000003f0: 1ea7 4a3e 68cf 833d 10aa 573c 372d fbbc
