src/unitree_a1_go1_torch_template/jax_nn_weights/Dense_8_kernel.npy (npy, 131200 bytes, 1 tensors)

array f4 [256, 128]
0	0xba517a83	-0.0007990973
1	0x3e16d491	0.14729525
2	0x3df01d52	0.117243424
3	0xbda39d47	-0.07988983
4	0xbd716830	-0.05893725
5	0xbdec187a	-0.11528106
6	0x3da29ebd	0.07940433
7	0x3a9a2d0e	0.0011762695
8	0xbcd0413e	-0.025421735
9	0xbe4cafc2	-0.19988921
10	0x3d59fa43	0.053217184
11	0x3d415078	0.04719588
12	0xba0e0033	-0.00054169
13	0xbd7bc8fa	-0.061470963
14	0x3e0c846f	0.13722394
15	0x3e07a171	0.13245179
16	0x3dd92916	0.1060354
17	0xbe0c38f1	-0.13693596
18	0xbd8ec17c	-0.06970498
19	0x3dfba600	0.12287521
20	0xbdac7085	-0.08419899
21	0xbd36eaea	-0.044657625
22	0x3e3f5a8c	0.18686885
23	0xbda3b871	-0.07994164
24	0xbe207634	-0.15670091
25	0x3ca0e948	0.019642487
26	0xb64a5a76	-3.0153e-06
27	0x3a32c214	0.0006819081
28	0x3b90e732	0.004422092
29	0x3e07f920	0.13278627
30	0x3c7b611e	0.015342979
31	0xbe2d0a61	-0.1689849
32	0xbd853912	-0.06505026
33	0xbe5788f1	-0.21048333
34	0xbd379985	-0.044824142
35	0x3c9f23cf	0.019426255
36	0x3d6830b2	0.056687064
37	0x3d8770f6	0.066133425
38	0x3d2eaa17	0.04264268
39	0x3c9102e4	0.017701574
40	0xbcec203e	-0.028823968
41	0x3d37c3cc	0.04486446
42	0xbe5adf81	-0.21374322
43	0x3dc8be2c	0.098018974
44	0x3dd34ff1	0.10317982
45	0x3d4dd629	0.050253067
46	0x3e0ee391	0.13953997
47	0xbd616ff7	-0.05503842
48	0x3e13ab13	0.14420728
49	0xbdb4e7b7	-0.088332586
50	0x3e0242d9	0.12720813
51	0x3da11acb	0.078664385
52	0x3d58fdbc	0.052976355
53	0x3e23b3f2	0.15986612
54	0xbce5b692	-0.028041158
55	0xbd78d35c	-0.060748443
56	0x3e0b4cdf	0.13603543
57	0x3df4b78e	0.11949073
58	0x3d4968a2	0.04917205
59	0x3e4aae8e	0.1979315
60	0xbda3b207	-0.079929404
61	0x3d6c3597	0.057668295
62	0x3da9c490	0.082894444
63	0xbd1324bc	-0.035923705
64	0x3d37abe2	0.044841655
65	0xbd986cf8	-0.07442659
66	0x3cf74465	0.03018398
67	0xbce8f0f0	-0.0284352
68	0xbe0bbca4	-0.1364618
69	0x3e67a750	0.22622418
70	0x3d9b8a0c	0.0759469
71	0xbd8164ed	-0.06318078
72	0xbd868c42	-0.06569721
73	0x3d0c6009	0.034271274
74	0x3d8c825f	0.06860804
75	0x3e2653cf	0.16242908
76	0x3d8522a2	0.06500746
77	0x3c8acb25	0.01694257
78	0xbe3a30b4	-0.18182641
79	0x3c1b11a6	0.009464657
80	0xbcb3f984	-0.021969564
81	0x3db482e6	0.088140294
82	0x3cfee04b	0.03111281
83	0xbe757b9a	-0.23972932
84	0xbb72fd92	-0.003707741
85	0xbd2132c7	-0.039355066
86	0x3ddf84d5	0.109140076
87	0xbd06bfd0	-0.03289777
88	0x3d01969b	0.03163777
89	0x3c283bf5	0.010268201
90	0x3d830e7d	0.06399248
91	0x3d34bcb3	0.04412527
92	0xbd5b0c70	-0.05347866
93	0x3d97b99a	0.074084476
94	0x3d0bdda0	0.034146905
95	0xbd244cc7	-0.040112283
96	0xbd93e1ab	-0.07220777
97	0xbdc59b68	-0.09648782
98	0x3cbe0ecd	0.023200417
99	0x3c635332	0.013874816
100	0x3c47700f	0.012172713
101	0xbdcbe6cc	-0.099561304
102	0xbc9e21ca	-0.019303221
103	0xbde60d98	-0.112330616
104	0xbdb3eaf2	-0.08785047
105	0x3da796d5	0.08183066
106	0xbd82e55b	-0.06391402
107	0x3d3f86da	0.046759464
108	0xbd9fb8ce	-0.077989206
109	0xbdb50b66	-0.08840065
110	0xbe2b27a5	-0.16714342
111	0x3da7df7a	0.08196922
112	0x3df06e97	0.11739843
113	0xbd2b5df8	-0.041837662
114	0xbdb7655f	-0.08954882
115	0xba577d85	-0.0008220303
116	0xbe1d5ea5	-0.15368135
117	0xbe1011c6	-0.1406928
118	0xbd80597b	-0.06267067
119	0xbd47979c	-0.04872857
120	0xbcc9cee7	-0.024634792
121	0x3d78cad3	0.060740303
122	0x3da798c0	0.081834316
123	0x3d22a23d	0.039705504
124	0xbdc1aa22	-0.094562784
125	0x3d9f2a7b	0.077717744
126	0x3d9f7a4f	0.077870004
127	0x3d893c0f	0.067009084
128	0xbc903ade	-0.017606195
129	0xbb884c59	-0.004159492
130	0x3dee62e0	0.11639953
131	0xbe054584	-0.130148
132	0xbdb5525a	-0.08853598
133	0xbe250e95	-0.16118844
134	0xbdc2d37f	-0.09512996
135	0x3e61bf02	0.2204552
136	0x3d869d75	0.06573001
137	0x3dae85a1	0.085215814
138	0x3d01b0a8	0.031662613
139	0xbd88b610	-0.06675351
140	0x3ddd2d84	0.10799697
141	0xbd471e5d	-0.04861294
142	0xbd95e370	-0.07318771
143	0x3d0890a2	0.033341058
144	0xbd183f23	-0.037169587
145	0xbd4425c8	-0.047887594
146	0xbd71c09c	-0.059021577
147	0x3d340e71	0.043959085
148	0x3ccac517	0.024752183
149	0x3dc8ca37	0.098041944
150	0xbd7a0883	-0.061043274
151	0x3c5be635	0.013421585
152	0x3e29f4d7	0.16597305
153	0x3d8d6a58	0.06905049
154	0xbcefc5f0	-0.029269189
155	0xbe12569a	-0.14290848
156	0xbd395b61	-0.04525316
157	0xbcdaf9bc	-0.02673041
158	0x3be2c828	0.006920833
159	0xbd80e6ef	-0.06294047
160	0xbe2bb2b7	-0.16767393
161	0xbda65047	-0.081207804
162	0xbdf1ef41	-0.11813212
163	0x3c4baf9b	0.012432004
164	0xbd5b8a6c	-0.053598806
165	0x3d4e53d6	0.05037292
166	0xbd8bc621	-0.068248995
167	0x3de8b194	0.11361995
168	0x3d7aaade	0.061198108
169	0xbd879795	-0.06620709
170	0xbe6f9632	-0.23397139
171	0xbe0b8869	-0.13626255
172	0xbdc35dbf	-0.09539365
173	0x3d2b5ed5	0.041838486
174	0xbcf2c95c	-0.029637031
175	0x3cf3356f	0.029688565
176	0x3df0ac64	0.11751631
177	0x3ced56cb	0.02897205
178	0xbdc6e734	-0.09712067
179	0x3d863001	0.06552125
180	0x3c5af05d	0.013362971
181	0xbdc77f48	-0.09741074
182	0xbe030f4d	-0.12798806
183	0xbd866abd	-0.065633275
184	0x3de4a01b	0.1116335
185	0xbd6611ec	-0.056169435
186	0xbd502014	-0.050811842
187	0xbcefdd7f	-0.029280422
188	0x3d0ffd3f	0.035153624
189	0x3de55acc	0.11198959
190	0xbd124d4d	-0.03571825
191	0xbd8070a4	-0.062714845
192	0x3a738624	0.0009289703
193	0x3cbd1d1b	0.023085168
194	0xbcc6160d	-0.024180437
195	0x3bf1eb44	0.007382782
196	0x3d0513d2	0.032489605
197	0xbca5a873	-0.020221924
198	0x3da680f5	0.08130065
199	0xbd27ac96	-0.040936075
200	0xbc4587bb	-0.012056286
201	0xbe20cb88	-0.15702641
202	0x3daa99e5	0.08330134
203	0xbe0593d3	-0.13044672
204	0x3e44ca32	0.19217756
205	0xbbb1343f	-0.0054078395
206	0x3dd618f6	0.1045398
207	0xbddace9f	-0.10683941
208	0x3d0f1b3d	0.034938086
209	0xbc91ebba	-0.017812598
210	0xbce76f3d	-0.028251285
211	0x3e6a6cf5	0.22893126
212	0xbb839d5d	-0.004016562
213	0xbdecbf14	-0.11559883
214	0xbe1c99c3	-0.1529303
215	0x3dd00d82	0.101588264
216	0x3d7a6add	0.06113707
217	0x3db15ef8	0.08660692
218	0x3d8f5563	0.06998708
219	0xbcdc7555	-0.026911417
220	0x3dd88c81	0.10573674
221	0x3dae3784	0.085066825
222	0xbd991659	-0.074749656
223	0xbe438ffb	-0.19097893
224	0xbc0372d5	-0.008022984
225	0x3d183432	0.037159152
226	0x3d959d78	0.073054254
227	0x3d6d503f	0.057937857
228	0xbcfb2a82	-0.030659918
229	0x3d6e8ed2	0.058241673
230	0xbe2d94f0	-0.16951346
231	0x3dc10df2	0.09426488
232	0xbd16097b	-0.036630135
233	0x3e56a3d4	0.20960933
234	0x3d6fa600	0.05850792
235	0x3e272f06	0.16326532
236	0x3da6e88f	0.08149826
237	0xbbb95c86	-0.0056567816
238	0xbd1e5dff	-0.03866386
239	0x3e15e144	0.14636713
240	0x3d2c7535	0.042103965
241	0xbdde5543	-0.10856106
242	0x3d82dc24	0.06389645
243	0x3b5e3747	0.003390746
244	0xbe0492e2	-0.12946656
245	0xbd9380e2	-0.07202317
246	0xbd201720	-0.039084554
247	0xbd287f90	-0.041137278
248	0xbe98f478	-0.29874015
249	0xbce04b17	-0.027379556
250	0x3d823c92	0.06359209
251	0x3cabc252	0.020966683
252	0xbc8817ef	-0.016612975
253	0x3881a93b	6.182721e-05
254	0x3d9e35b8	0.0772509
255	0x3d952f51	0.072844155
