src/unitree_a1_go1_torch_template/jax_nn_weights/Dense_13_kernel.npy (npy, 640 bytes, 1 tensors)

array f4 [128, 1]
0.0018792182 -0.013407489 0.055024937 -0.00803196 0.025404068 -0.07145697 -0.0004507519 -0.0032469677
0.03085587 0.04623244 0.0019964762 0.035541292 0.015619872 0.046419516 -0.020103307 -9.2331875e-06
0.0468671 0.016835593 -0.037134558 -0.0045316485 -0.00815154 0.0074358485 0.005003979 0.0145891
-0.019032631 -0.00232304 -0.007858366 -0.03368321 0.032259222 -0.004015398 0.021600679 0.02868167
-0.0010965212 5.2019997e-05 -0.013065577 -0.030979762 -0.023061465 0.005429374 -0.031840753 0.011723345
-0.036842644 -0.03299971 0.022752294 0.01929976 -0.035693888 -0.0059026247 -0.022913087 -0.0014426913
0.025806922 -0.0064076423 0.19048394 0.0041664117 -0.004297782 -0.006560524 -0.01920456 0.02359526
0.013704745 0.0071610524 0.026649196 0.0072972835 -0.011764521 0.0047720177 -0.0136006 0.014980816
-0.012146507 -0.0223601 0.0056611174 0.020931358 -0.09996681 0.0023675205 -0.009520965 0.009039585
0.015685355 -0.06449078 0.008348145 0.0018886628 0.036022384 -0.027206855 -0.050581947 -0.021528356
5.9499234e-05 -0.0022730273 -0.008953762 -0.023884289 -0.0017524172 0.0038694101 -0.034228325 -0.018951295
0.0028744314 0.017595617 -0.082338326 0.0052605695 0.0070075523 0.011322301 -0.005496671 0.00040226433
0.094834544 0.0054685865 -0.019310514 0.026036723 0.0042023193 0.010376204 0.01898875 0.06165906
0.0005866476 0.014690837 0.02558165 -0.015412231 -0.008122649 -0.048170857 -0.008198003 -0.013758265
0.009952314 0.009738095 0.022669462 -0.053891785 0.030936927 0.045620646 0.018667895 0.038229484
-0.01514895 -0.01932321 0.025853852 0.014266845 0.026999487 0.0016115111 -0.014881625 -0.112818256
00000000: 1950 f63a 16ab 5bbc d461 613d 7b98 03bc
00000010: 311c d03c 0858 92bd e552 ecb9 14cb 54bb
00000020: 73c5 fc3c 3a5e 3d3d 50d7 023b bf93 113d
00000030: 7eea 7f3c 6422 3e3d b1af a4bc 3de8 1ab7
00000040: b7f7 3f3d ccea 893c 681a 18bd 397e 94bb
00000050: 098e 05bc 6ba8 f33b 6bf8 a33b 1f07 6f3c
00000060: 52ea 9bbc 253e 18bb 60c0 00bc 68f7 09bd
00000070: 3f22 043d 9a93 83bb e8f3 b03c d2f5 ea3c
00000080: 25b9 8fba 0c30 5a38 0011 56bc 45c9 fdbc
00000090: 66eb bcbc e4e8 b13b 736b 02bd 4613 403c
000000a0: 50e8 16bd b42a 07bd 0563 ba3c 881a 9e3c
000000b0: c133 12bd ce6a c1bb 3ab4 bbbc b018 bdba
000000c0: 0a69 d33c 33f7 d1bb 390e 433e 6586 883b
000000d0: 69d4 8cbb aaf9 d6bb e252 9dbc d94a c13c
000000e0: de89 603c 43a7 ea3b 6a4f da3c 0d1e ef3b
000000f0: fabf 40bc 965e 9c3b 0dd5 5ebc 1972 753c
00000100: 2502 47bc 872c b7bc e580 b93b 3d78 ab3c
00000110: 66bb ccbd 6728 1b3b d2fd 1bbc c41a 143c
00000120: 937e 803c be13 84bd a8c6 083c 028d f73a
00000130: 358c 133d e9e0 debc 042f 4fbd 3c5c b0bc
00000140: d18e 7938 12f7 14bb cdb2 12bc fca8 c3bc
00000150: 5db1 e5ba ee95 7d3b 0033 0cbd bf3f 9bbc
00000160: f560 3c3b af24 903c ffa0 a8bd db60 ac3b
00000170: 9c9f e53b 2c81 393c 6b1d b4bb 01e7 d239
00000180: 9d38 c23d d431 b33b 1531 9ebc f74a d53c
00000190: 9cb3 893b f400 2a3c 4c8e 9b3c 368e 7c3d
000001a0: 41c9 193a d6b1 703c 9c90 d13c 9583 7cbc
000001b0: dc14 05bc ce4e 45bd eb50 06bc 596a 61bc
000001c0: 080f 233c 888c 1f3c 4fb5 b93c a2bd 5cbd
000001d0: 706f fd3c b7dc 3a3d 6aed 983c 8596 1c3d
000001e0: 4d33 78bc b54b 9ebc 75cb d33c 7cbf 693c
000001f0: 072e dd3c 5739 d33a 0fd2 73bc 420d e7bd
