src/unitree_a1_go1_torch_template/jax_nn_weights/Dense_9_kernel.npy (npy, 11904 bytes, 1 tensors)

array f4 [23, 128]
0	0x3f0474ac	0.5174053
1	0xbed1fc7a	-0.41012937
2	0xbf84ea79	-1.0384055
3	0xbba0054d	-0.0048834444
4	0x3c834bf5	0.01602743
5	0xbf02da38	-0.51114225
6	0x3f1a6524	0.6031058
7	0xbf05897b	-0.52162904
8	0x3f86d99d	1.053516
9	0xbdf8573f	-0.12126016
10	0xbecb4e26	-0.3970806
11	0x3f027424	0.50958467
12	0xbe1b64a5	-0.15175112
13	0xbdc46735	-0.09589998
14	0xbde3521a	-0.11099644
15	0xbe362ae9	-0.17789806
16	0xbddf5b54	-0.10906091
17	0xbfcde60e	-1.6085832
18	0xbf09fe93	-0.53904074
19	0x3d963aeb	0.073354565
20	0x3e872c45	0.26400962
21	0x3dc9c873	0.09852686
22	0x3d69416b	0.056947153
23	0x3f05a1cb	0.522
24	0xbecf8359	-0.40529898
25	0xbeb3e26b	-0.3513368
26	0x3ca40ba0	0.020025074
27	0x3f4434e6	0.76643217
28	0x3f150992	0.5821773
29	0xbed5007b	-0.4160193
30	0x3f3047e7	0.68859714
31	0x3d5c0684	0.05371715
32	0x3d3d304f	0.04618865
33	0x3f07b0b4	0.53004
34	0x3f040609	0.5157171
35	0x3da47d1d	0.08031676
36	0xbf591525	-0.8479789
37	0xbe940c92	-0.2891584
38	0x3e4a895f	0.19778965
39	0x3eba74c9	0.36417225
40	0xbe698c71	-0.2280748
41	0xbf367c77	-0.7128367
42	0x3da18f3d	0.07888649
43	0x3f11f051	0.5700732
44	0x3f8eb3a1	1.1148568
45	0xbd1ece88	-0.038771182
46	0xbe5ea6d0	-0.21743321
47	0xbf08294c	-0.53188014
48	0xbeba89b4	-0.36433184
49	0x3e780529	0.24220718
50	0x3ec5d5d2	0.38639694
51	0xbd20477b	-0.03913067
52	0xbeaa8cfe	-0.33310694
53	0xbda1b28d	-0.07895384
54	0x3e47ae0a	0.19499984
55	0xbe93b448	-0.2884848
56	0x3f2e31cf	0.6804475
57	0x3f7dc14b	0.99123067
58	0x3e5c467f	0.21511267
59	0x3f9f6e74	1.2455583
60	0xbe911e4a	-0.2834342
61	0xbeb5af6c	-0.354854
62	0xbd21fb01	-0.039546017
63	0x3fb04bb0	1.3773098
64	0xbf650542	-0.8946115
65	0x3db11118	0.086458385
66	0xbe54559d	-0.20735784
67	0xbee0832a	-0.4385007
68	0xbad2f28d	-0.0016094014
69	0xbe19cc2a	-0.15019289
70	0xbf039047	-0.51392025
71	0xbed9f0b2	-0.42566448
72	0xbf420a16	-0.7579664
73	0xbe4ba46c	-0.1988694
74	0x3ebf8d12	0.37412316
75	0x3eeab222	0.4583903
76	0xbe4bf539	-0.19917764
77	0x3e57cf7d	0.21075244
78	0xbf328c64	-0.6974547
79	0x3e24e122	0.16101506
80	0x3f0524f8	0.52009535
81	0x3f124510	0.5713663
82	0x3dcecb98	0.10097426
83	0xbf9a218b	-1.2041487
84	0xbedaf599	-0.427655
85	0x3d9c4190	0.076296926
86	0x3f589702	0.8460542
87	0xbf18ea1e	-0.59732234
88	0x3ecbcf06	0.39806384
89	0x3eb4cf5b	0.3531445
90	0x3ee88fbb	0.45422158
91	0xbe4e6f2f	-0.201596
92	0x3ecf5f99	0.40502623
93	0x3faa228f	1.3291796
94	0x3cc8d212	0.024514232
95	0xbefebc53	-0.49753055
96	0x3ee3ddf3	0.4450527
97	0xbdebbf51	-0.115111
98	0xbe6e10fc	-0.23248667
99	0x3f0f7f8a	0.56053984
100	0xbec5c48f	-0.38626525
101	0xbd6fab22	-0.058512814
102	0xbdcb7927	-0.09935217
103	0xbe4ea2ce	-0.20179293
104	0x3f35fb95	0.7108701
105	0xbefd9b03	-0.49532327
106	0x3f57b26f	0.84256643
107	0xbf1535e3	-0.5828535
108	0xbf2abf32	-0.6669799
109	0x3eb3ffb1	0.35156015
110	0xbf46a735	-0.7759889
111	0xbef4a38f	-0.47781035
112	0x3f5d88cc	0.8653686
113	0xbe06f268	-0.13178408
114	0xbcffbd49	-0.031218188
115	0x3e955b83	0.2917138
116	0xbe832d3e	-0.25620455
117	0x3f463c79	0.77436024
118	0xbefd5c2c	-0.49484384
119	0x3ef7254b	0.4827064
120	0x3e5f4ff6	0.21807846
121	0x3e82c462	0.25540453
122	0xbd4baf5f	-0.049727794
123	0x3fe3fd51	1.7811681
124	0xbf05d78c	-0.52282023
125	0xbe7e040f	-0.24806236
126	0x3f0d5a2a	0.55215704
127	0xbe9d2360	-0.3069105
128	0x3f328912	0.697404
129	0x3e338a01	0.17533113
130	0x3c5873d5	0.01321121
131	0x3eff0d3e	0.4981479
132	0x3f90a93c	1.1301646
133	0x3fa1641f	1.260868
134	0xbf77eb55	-0.96843463
135	0x3e3f7bc5	0.18699558
136	0x3eb15e53	0.34642276
137	0x3f4f9e1c	0.8110063
138	0x3ec424dc	0.3830937
139	0x3e157669	0.14595951
140	0xbea1429d	-0.31496134
141	0xbf0beea3	-0.54661006
142	0xbeb859cd	-0.36006013
143	0x3ed78048	0.42090058
144	0x3ed49d84	0.41526425
145	0x3e5251ec	0.20539063
146	0xbe35fac8	-0.17771447
147	0x3ea2bf97	0.31786796
148	0x3f695da2	0.911585
149	0xbddfcee0	-0.1092813
150	0x3e98cfc1	0.29846004
151	0x3e61bcac	0.22044629
152	0x3e82a614	0.25517333
153	0x3f132e50	0.5749254
154	0x3f3e752c	0.7439754
155	0xbe82eb17	-0.25569984
156	0x3e51179c	0.20419163
157	0xbedc930f	-0.43080947
158	0x3dac99b5	0.08427755
159	0x3d9a3341	0.07529307
160	0xbcdeccd0	-0.027197272
161	0x3e0a6bd1	0.13517691
162	0xbf490f2f	-0.78538793
163	0x3ecbb9bb	0.3979014
164	0x3ea5beca	0.32372123
165	0xbd2c39dc	-0.042047366
166	0x3f3e92b6	0.74442613
167	0x3ed447ea	0.41461116
168	0x3f301b13	0.6879131
169	0xbef81f52	-0.48461396
170	0x3f1c3cad	0.61030084
171	0xbe59e9c8	-0.21280587
172	0xbe82498d	-0.2544674
173	0xbf0ed216	-0.55789316
174	0xbeccf8cf	-0.40033576
175	0x3f35d6bb	0.7103078
176	0xbea903aa	-0.33010608
177	0xbc0c5590	-0.008565322
178	0x3deb232a	0.114813164
179	0xbe79a005	-0.24377449
180	0x3c076913	0.008264798
181	0xbe8cdf7d	-0.27514258
182	0xbda39640	-0.07987642
183	0x3e877a6d	0.2646059
184	0x3f611e65	0.87937003
185	0xbde9e572	-0.11420716
186	0xbe891f05	-0.2678148
187	0xbe66b149	-0.22528566
188	0x3f0251d0	0.50906086
189	0xbe0b1692	-0.13582829
190	0xbf5dc310	-0.86625767
191	0xbe14ce23	-0.1453176
192	0xbf2584b0	-0.6465559
193	0xbf5be528	-0.8589654
194	0xbebbf1ec	-0.3670801
195	0x3eb2cf9c	0.34924018
196	0x3f266ae8	0.65006876
197	0xbdecf80f	-0.11570751
198	0x3d0fb5fa	0.035085656
199	0xbf3b7800	-0.7322998
200	0x3c653d80	0.0139917135
201	0x3e004aec	0.1252858
202	0xbeb9a7e8	-0.36260915
203	0xbe8af9a9	-0.271436
204	0xbec31ad7	-0.38106415
205	0xbe39e423	-0.18153434
206	0x3f3fefb1	0.74975115
207	0xbf2e8753	-0.6817524
208	0xbf375c81	-0.71625525
209	0xbf48d854	-0.7845509
210	0x3f83cc42	1.029671
211	0xbe217692	-0.15767887
212	0x3e55e911	0.20889689
213	0x3e97991f	0.2960901
214	0x3f2a3be9	0.66497666
215	0xbe238dec	-0.15972108
216	0x3e8f4b38	0.27987075
217	0xbef71785	-0.4826013
218	0xbd1ceda7	-0.03831258
219	0xbea463d1	-0.32107404
220	0x3e9dddc6	0.30833262
221	0xbf49130e	-0.785447
222	0xbe79828c	-0.24366206
223	0x3d393d7a	0.045224644
224	0x3ecfdd2f	0.40598437
225	0xbf36e606	-0.7144474
226	0xbe4b34d8	-0.19844377
227	0xbf0edca3	-0.55805415
228	0xbd483509	-0.048878703
229	0xbe843030	-0.25818014
230	0xbe71b2d3	-0.23603372
231	0x3e7914e4	0.24324375
232	0x3e43f835	0.19137652
233	0xbe03db8f	-0.12876724
234	0xbe0980c6	-0.1342803
235	0xbdd56138	-0.10418934
236	0x3eb549d4	0.3540789
237	0xbdc6b453	-0.09702363
238	0x3f217930	0.6307554
239	0x3dfbbd38	0.1229195
240	0x3e94269a	0.289357
241	0xbf1e2b81	-0.6178513
242	0xbe9e6ecd	-0.3094391
243	0xbed440e2	-0.41455752
244	0xbf34dcf2	-0.70649636
245	0xbed91f71	-0.424068
246	0x3ea4319e	0.32069105
247	0xbe5edaa7	-0.21763097
248	0x3edfc744	0.43706715
249	0x3f342e8b	0.7038352
250	0x3faa09c7	1.3284234
251	0xbb008c19	-0.0019614755
252	0x3d72ef4b	0.05931024
253	0x3f05ec13	0.52313346
254	0x3f6672d5	0.9001897
255	0xbdf0f7b8	-0.117659986
