src/unitree_a1_go1_torch_template/jax_nn_weights/Dense_3_kernel.npy (npy, 1408 bytes, 1 tensors)

array f4 [10, 32]
000000 de 07 32 bf 5c 31 2c bd 0a 73 bb bd c5 cc 8c 3e
       -0.69543254 -0.04203926 -0.09152801 0.27499977
000010 41 a8 72 be 6f b9 af 3e 34 ef 14 3e 93 7c ef bd
       -0.23696996 0.34321162 0.14544374 -0.116936825
000020 c9 3e 39 bd 34 7a 8a be 56 3e 2c be 18 88 c6 be
       -0.045225892 -0.2704636 -0.16820654 -0.38775706
000030 a7 54 19 3f 46 e2 b6 be 5c c9 7b bd e6 ef db be
       0.59894794 -0.35719508 -0.06147133 -0.42956465
000040 8e f8 c9 be 31 82 24 3e 3a 0e 9c be 0e 09 13 3e
       -0.39447445 0.16065289 -0.30479604 0.14358923
000050 fe 18 60 be bf fc 0a 3e b7 f9 00 be a0 f9 ee 3e
       -0.21884534 0.13572977 -0.12595259 0.46674824
000060 57 9d 47 be 67 49 d3 3e 07 a8 f7 be d0 37 c6 3e
       -0.19493614 0.4126694 -0.48370382 0.38714457
000070 74 90 89 3e 3d 5f 34 3d b9 5d ca 3e 97 b5 a4 be
       0.2686802 0.04403614 0.3952463 -0.32169792
000080 88 ae 89 3d 80 93 f5 3c 47 94 d8 bc ed b2 b8 3e
       0.06722742 0.02997756 -0.026437892 0.3607401
000090 21 cc 16 be fe ef 2b be 76 3d 03 bf e6 0d b2 3e
       -0.14726306 -0.16790769 -0.51265657 0.3477623
0000a0 ab b9 32 be 41 0d ed 3d 6c 7f c7 3d 71 eb fa 3d
       -0.17453639 0.115747936 0.09741101 0.12251938
0000b0 66 db 24 be 54 d5 02 3e b3 40 ff be 3c fc 6b be
       -0.16099319 0.1277669 -0.4985405 -0.23045439
0000c0 58 59 ab 3c 5d 7f 01 3e 33 c3 75 3d 22 a8 9f be
       0.020916626 0.12646241 0.06000061 -0.31182963
0000d0 53 4c ab 3e 1c 26 22 be c7 af 98 3e d0 1e de be
       0.33456668 -0.1583485 0.29821607 -0.43382883
0000e0 62 2a 5e be 55 f6 76 be 19 40 28 bf 8b 99 7b be
       -0.21695855 -0.24117406 -0.65722805 -0.2457029
0000f0 1d 51 10 3e 61 38 aa 3d 60 67 b9 3d b0 9b c6 be
       0.14093442 0.08311535 0.0905292 -0.38790655
000100 98 f1 d4 be 06 ca 05 3e 7d 95 b0 bd 19 9f 81 be
       -0.4159057 0.13065347 -0.086222626 -0.25316694
000110 1c f5 c6 3c e7 d1 b6 3e 14 fc ba be 22 12 ba be
       0.0242868 0.35707018 -0.36520445 -0.3634196
000120 5d 92 e5 bd d4 44 43 3e a5 48 a9 3e e9 2d 2c 3e
       -0.11209557 0.19069225 0.33063236 0.16814388
000130 88 42 ba 3e 19 4e c9 3e d3 ac 22 be 34 d5 a7 3e
       0.36378884 0.39317396 -0.1588624 0.3277985
000140 89 73 8e be db 82 79 bc 82 c0 cd be aa 53 25 3f
       -0.2782252 -0.015228952 -0.40185934 0.64580786
000150 5a 21 62 3e 1f b9 e6 3c fa a0 09 bf 80 cb bb bd
       0.22083035 0.028164444 -0.53761256 -0.09169674
000160 ca 6e f2 3e 98 7d 82 3e 1f b4 e5 3d 4b b0 b9 3e
       0.4735015 0.25486445 0.11215996 0.36267313
000170 41 3c 26 3e 91 83 7e be ee 1c 18 bf f4 49 ff bb
       0.16233923 -0.24854876 -0.59419143 -0.0077907983
000180 7b db 06 3f 3e 72 94 3d 7c 46 f3 3d 80 cb 82 3e
       0.5267865 0.072483525 0.11878678 0.25545883
000190 02 83 cd bd 20 ac 01 3e 10 bc f7 3d 5a 6c 0a bf
       -0.100347534 0.12663317 0.12096417 -0.5407158
0001a0 7b 47 2a be e5 78 10 3c a3 18 28 3f 1d e2 4a ba
       -0.1662883 0.008817886 0.6566259 -0.0007739382
0001b0 81 8a f5 3e c4 65 05 3f 74 05 4c bd 6b fa 08 bf
       0.47957233 0.5210841 -0.049809888 -0.5350711
0001c0 eb 32 8b be 8b 05 76 be 8a 41 f8 bc e1 26 23 bf
       -0.27187285 -0.24025552 -0.030304689 -0.637312
0001d0 fe 8e b8 be d6 ad 39 be 57 51 a6 be 17 b6 8f 3e
       -0.36046594 -0.1813272 -0.32483932 0.2806861
0001e0 d4 6f 26 3c 86 3c 82 bc 15 03 4e be 6d 77 da be
       0.010158498 -0.015898 -0.20118363 -0.4266924
0001f0 0b e6 01 3d 16 c9 04 bf 9e 83 52 be 4b df 17 bd
       0.031713527 -0.5186933 -0.2055802 -0.037078183
000200 f6 b1 80 be 74 8e 3d be 97 e5 61 3c 72 0e b1 bc
       -0.25135773 -0.18511373 0.013787649 -0.021613333
000210 4f ed 3d be f7 6b 10 ba 82 41 0b bf 46 6c 13 bf
       -0.18547557 -0.0005509252 -0.5439683 -0.5758709
000220 01 b2 83 be 2a 0f e0 3e 83 b9 d9 bd df ee 87 3e
       -0.25721744 0.4376157 -0.10631087 0.26549432
000230 b1 52 60 3e 5f b9 00 bf c2 fd 88 3e 9e b6 7f be
       0.21906544 -0.50282854 0.26756102 -0.24972007
000240 a2 65 87 be 5a 29 cc ba 75 74 cb 3e 3e 32 c7 bc
       -0.26444727 -0.0015576289 0.39737287 -0.02431595
000250 0c 23 0a 3f b9 a3 8e be c3 79 43 3e c9 3c 2d 3f
       0.5395973 -0.27859285 0.19089417 0.67670876
000260 3d a6 06 3e 3b b6 cf 3e 21 83 14 bf b4 62 10 3f
       0.13149352 0.40568718 -0.58012587 0.5640061
000270 44 13 30 be cf 8d 16 bf 2d 06 dd bc 61 a6 c3 be
       -0.17194849 -0.5881013 -0.026980484 -0.38212875
000280 fb 6f 8c 3d b0 d8 82 3d 13 e5 9e be bc df 44 bd
       0.06857296 0.06388986 -0.31034145 -0.048064932
000290 67 7a 84 bd 45 6f 52 be 4c 1c c3 bd 4f b7 65 3d
       -0.06468659 -0.20550258 -0.095268816 0.05608302
0002a0 ee b9 55 3e 42 a4 c9 3e 38 27 87 3e 7c d3 2c 3f
       0.20871708 0.3938313 0.2639711 0.675102
0002b0 60 83 55 3e cb c1 9d 3c 6f 86 c5 3b 3d 19 b8 3c
       0.20850897 0.019257447 0.0060279886 0.022472972
0002c0 8c 50 97 3b d0 b5 a1 3e 72 da 93 3e cb ba f4 be
       0.004617756 0.31584024 0.28877598 -0.47798762
0002d0 ae 91 e9 be 22 9a 94 bd 43 6b d5 3e c1 ee 48 bd
       -0.45618957 -0.07255961 0.41683397 -0.04905582
0002e0 9a 52 64 3c 19 98 e3 3e 44 1c 55 be 41 69 97 3d
       0.013935709 0.4445198 -0.20811564 0.073931225
0002f0 73 31 9e 3e a7 47 f5 3e e9 ca bc 3d 8f 27 45 3e
       0.30897102 0.4790623 0.092183895 0.19253372
000300 88 d9 9e 3e c9 3b 02 3f 8e 64 01 3f 24 1b 0f bf
       0.31025338 0.50872475 0.5054406 -0.5590079
000310 84 79 cc 3d 39 82 7b 3e bc 34 f6 3e 06 a3 45 be
       0.09984115 0.24561395 0.48087108 -0.1930047
000320 35 25 4f be c0 3b 20 3f 73 8f 82 3e eb fc ed 3d
       -0.20229037 0.6259117 0.25500068 0.11620506
000330 1f 0c 73 3e 9f db 8f 3e 6c 89 a5 3d 37 9e 9f 3e
       0.23735093 0.28097245 0.08082852 0.31175396
000340 14 7f f6 3e 6f 0f 1d bf 5d 7f cd be 59 5e 6f bd
       0.48143828 -0.61351675 -0.40136233 -0.058439586
000350 73 8e 54 3e 2c 4b 86 be 75 4b c4 3e c7 6a 37 3f
       0.20757465 -0.26229227 0.3833882 0.71647304
000360 df 56 70 be a6 19 d3 bd 24 73 1c 3f 7c dc c6 3d
       -0.23470639 -0.103076264 0.6111319 0.09710023
000370 99 e2 d0 be 41 f5 a1 3d eb d7 60 be 9f 1c d3 3e
       -0.4079788 0.079081066 -0.21957366 0.41232774
000380 2e 36 01 bf d1 1d 1f bf 86 d5 1e 3c 45 c3 4f 3e
       -0.50473297 -0.6215487 0.009694463 0.20289333
000390 ac 24 00 be 8e 18 63 3d 68 ce 5f be e5 2a 28 bf
       -0.12513989 0.05544334 -0.21856081 -0.6569045
0003a0 ea 21 93 be 2f f7 9f 3e 35 cc c9 be d9 10 5f be
       -0.28736812 0.31243274 -0.3941361 -0.2178377
0003b0 9d ab 96 3d 2e e5 68 3e b2 7a 57 3e 81 b1 a4 bd
       0.073569514 0.22743675 0.21042898 -0.08041669
0003c0 78 8b 06 bf 9f 2a 85 bd 4e 09 85 be 3a e8 e4 be
       -0.5255656 -0.0650227 -0.2598366 -0.44708425
0003d0 60 88 a9 be d4 87 41 3d ea 28 26 be 66 99 f5 be
       -0.33111858 0.047248676 -0.16226545 -0.47968596
0003e0 12 e4 9c 3e de 8a fb be 00 49 bb bd 00 95 09 bf
       0.30642754 -0.49129385 -0.09144783 -0.5374298
0003f0 14 47 db be 1b 8b f4 bd cc b8 42 3d 61 54 e0 bd
       -0.42827666 -0.11940595 0.047539517 -0.10953594
