src/unitree_a1_go1_torch_template/jax_nn_weights/Dense_6_kernel.npy (npy, 819328 bytes, 1 tensors)

array f4 [400, 512]
000000 3c 98 f4 bd 03 f9 29 be 7a e5 ff bd 94 0a 98 bd
       -0.11943099 -0.16598897 -0.12494941 -0.074238926
000010 89 f9 e8 bd 9d 6d 16 3e c1 b2 c2 3e dd 47 d2 3e
       -0.1137572 0.14690252 0.38027003 0.41070452
000020 36 b6 45 be 70 02 80 3e e3 76 20 be 03 f0 e2 3d
       -0.19307789 0.2500186 -0.15670352 0.11080935
000030 ae 84 a0 be e5 a1 31 be a7 05 4a 3d 14 31 1b 3e
       -0.31351227 -0.17346914 0.049321797 0.1515544
000040 4d 90 a6 3d 8f 87 18 be 24 7b 82 3d 0e b0 bf 3d
       0.08132992 -0.14895461 0.063711435 0.09359752
000050 77 82 d6 bd cb 78 fd bd 95 8b 91 3d 41 94 d2 be
       -0.10474103 -0.12376555 0.07106701 -0.41128734
000060 c7 ee b4 3c b0 70 e7 3d 7b 07 07 be f0 d8 e8 3b
       0.022086514 0.1130079 -0.13186447 0.007105939
000070 40 56 49 3d 98 37 d1 3d d4 d4 af 3e 0a 18 c8 bd
       0.04915452 0.10215682 0.34342062 -0.0977021
000080 a4 1a c1 3e c8 0c b5 bd cc a8 4d bd fc 4a f8 bd
       0.37715638 -0.088403285 -0.050209805 -0.12123677
000090 56 7c 01 be 61 b5 80 3b bb 4f be 3e 46 26 a8 3b
       -0.12645087 0.003927872 0.37170205 0.0051315157
0000a0 1f 64 55 3e 91 d3 94 bb b3 6a 4d bd 5a 10 e5 be
       0.20838974 -0.0045418222 -0.050150584 -0.44739038
0000b0 40 49 8f be 5d b1 fc 3d ba 15 51 3e 57 72 af 3e
       -0.27985573 0.12338517 0.20418444 0.34266922
0000c0 39 86 14 bf 07 a8 c8 be 92 09 02 3c 6b 72 05 bf
       -0.5801731 -0.39190695 0.007936852 -0.5212771
0000d0 98 45 98 3e e9 7e 47 3e ac f7 a5 be af 42 06 3f
       0.29740596 0.19482006 -0.3241552 0.524455
0000e0 e5 3f 73 be 72 b4 83 3d 39 5c 0c 3e 04 8a 03 3e
       -0.23754843 0.064309016 0.13707055 0.12845618
0000f0 6d 42 ed bc 2c 8c d2 3d d2 49 dc 3d a4 ba 71 3e
       -0.028962338 0.10280642 0.107562676 0.23606354
000100 7f ec 7c 3e ad ab be be 83 be dc 3d 32 c0 29 3e
       0.24699591 -0.37240353 0.10778525 0.16577223
000110 01 2f 2e be 3c 8f f3 3d 9c 7d b9 be 2c a4 f1 be
       -0.17010118 0.11892554 -0.36228645 -0.47195566
000120 d3 a4 fc bd dd 51 a7 3e 54 37 dd 3c 72 ed c1 3e
       -0.12336125 0.32679644 0.027003922 0.3787647
000130 5f 60 ba be be b3 9b 3e 7c 8b c0 3e 47 b8 bc bc
       -0.3640165 0.3041057 0.37606418 -0.023037089
000140 be 36 ae bc c3 76 90 3e 7c 95 af 3e a3 fb ac bc
       -0.021266337 0.28215608 0.34293735 -0.021116083
000150 0b 56 43 be b2 68 f3 3e e0 04 a9 3d 23 f5 ba 3e
       -0.19075792 0.47540814 0.08252883 0.3651515
000160 ea d6 d7 be 9f f7 ee bc 03 f1 40 be e6 dc 94 3e
       -0.42156154 -0.02917081 -0.18841939 0.29074782
000170 aa 63 19 3e f0 f8 81 bc 3e 19 18 bf bb 8b e1 3d
       0.14979425 -0.015865773 -0.59413517 0.110129796
000180 7b a7 b2 3d 47 84 c2 be d5 29 62 3c 9f 40 86 bd
       0.087233506 -0.37991545 0.013803919 -0.06555294
000190 df 8a d3 b9 fb fd 5c be 27 17 75 3e d9 71 f9 bd
       -0.00040348523 -0.21581261 0.23934613 -0.12179918
0001a0 50 63 04 be 8d 22 15 3e 6a b7 28 be 4c ca 8c 3e
       -0.1292851 0.14563961 -0.16476217 0.2749809
0001b0 fc e4 bf 3d 4c 44 87 3e 90 32 a1 3e aa 6a c7 be
       0.09369847 0.26419294 0.3148389 -0.38948566
0001c0 fc 42 4b 3e 64 60 8f bd 76 06 d1 3c 0e b0 69 be
       0.19849771 -0.07000807 0.025515776 -0.22821066
0001d0 2d 44 f7 be 24 85 1e 3e 3b 98 76 be dc 55 55 bc
       -0.48294201 0.15480477 -0.24081509 -0.013020959
0001e0 8b 78 fe 3e b4 b6 7e be 69 d2 4c be ca 38 9b 3b
       0.49701342 -0.24874383 -0.2000214 0.0047369944
0001f0 22 ae 90 3d d0 15 a1 3d b2 fe 7c 3c 04 37 f1 3d
       0.07064463 0.078654885 0.0154415835 0.117780715
000200 c8 d2 e2 be 46 94 ae be 8d 86 14 bf 48 8c 96 be
       -0.44301438 -0.340975 -0.5801781 -0.294039
000210 a1 ae 6c 3d 7f 0e 89 3e 1d a5 ab 3e 32 c6 1e bc
       0.057783727 0.26768872 0.3352441 -0.009690808
000220 ab ee c9 3c 8a cc 18 bf d1 26 4c bd d6 39 2d 3d
       0.024649939 -0.596871 -0.049841706 0.042291485
000230 a2 b6 37 3e 9b 53 15 bf 19 37 4d be 0c be 9a be
       0.17940763 -0.58330697 -0.2004055 -0.3022312
000240 8b 7f ab 3d 0f 8a e2 bd 8c ff e9 3d f6 79 f0 3c
       0.08373936 -0.11061489 0.11425695 0.02935503
000250 33 75 66 bd 4b 22 58 bd fb 11 20 3c 37 38 de 3c
       -0.056264114 -0.05276708 0.009769912 0.027126415
000260 e5 23 b7 3e 21 48 6f be 83 e7 b7 3d 25 10 3e be
       0.35769573 -0.23367359 0.08979704 -0.18560846
000270 e8 14 35 3b fe 99 3d 3f 34 97 8e 3e a3 e9 04 bd
       0.002763087 0.740631 0.27849734 -0.032449376
000280 d1 c9 d1 3c 37 fa 87 be 66 fa c0 bb db 3f 24 3e
       0.025608929 -0.26558086 -0.005889225 0.16039984
000290 55 3e b9 3d a1 a1 9c 3c b7 a8 38 bd c0 71 28 be
       0.09045092 0.01912004 -0.045082774 -0.16449642
0002a0 59 e7 39 be 63 eb 1c be 60 09 ca be 8d ec ac be
       -0.18154658 -0.15324168 -0.39460278 -0.33774224
0002b0 dc 0d 6a 3e 5c 25 11 3e e0 55 bc 3e 8b 8b a0 3e
       0.2285685 0.14174408 0.36784267 0.31356463
0002c0 ab 6f 1c 3e 81 e2 aa bd bd 61 ae be ef 79 a1 be
       0.15276973 -0.083439834 -0.34058943 -0.3153834
0002d0 96 a8 58 3e 3d 04 61 bd d5 24 b4 be 36 78 9c 3d
       0.2115806 -0.054935683 -0.3518435 0.07640116
0002e0 64 90 aa 3c bc 22 08 3e 01 69 01 3d 48 51 b8 be
       0.020820804 0.132945 0.03159428 -0.35999513
0002f0 fe e3 6e be fa a6 a0 3e c9 8c ff 3d cc 13 01 3e
       -0.2332916 0.31377393 0.124780245 0.12605208
000300 5f a3 a7 b8 07 c4 7a bd d4 4b cc be 77 96 62 3d
       -7.993611e-05 -0.061222102 -0.39901602 0.055319276
000310 16 d9 bc be c0 e8 10 3e 22 a1 17 bd 5a 1d 3f be
       -0.36884373 0.14151287 -0.037018903 -0.1866354
000320 77 72 a9 bc bf 71 b8 bd 40 06 0a bb 5f e5 2b bd
       -0.020684464 -0.0900607 -0.0021060854 -0.041966792
000330 fe 6a b1 be f6 ed 67 be 49 08 12 3e c2 a4 a8 3c
       -0.3465194 -0.22649369 0.14260973 0.020586375
000340 86 72 35 3e 31 64 12 3e e1 2f 32 be 35 59 59 3e
       0.17719468 0.14296032 -0.17401077 0.21225436
000350 41 64 27 3d 89 d3 88 be e2 de 61 be 5f 6a 93 be
       0.040867094 -0.2672389 -0.2205768 -0.28792092
000360 0e 99 86 3e 72 2a 0f 3d 77 a5 2e be 35 d4 a4 bc
       0.26288646 0.03495259 -0.17055307 -0.02012072
000370 8f 67 c6 3e 4e f6 8e bd 84 68 90 3d 4d d9 02 3e
       0.38750884 -0.06980573 0.07051185 0.12778206
000380 ec 99 81 bd 3f 07 34 3d 79 90 61 bc 5b 4f 6d 3e
       -0.063281864 0.043952223 -0.013767355 0.23174803
000390 13 a8 20 be 59 1b 8f be 40 49 c7 bd b3 65 26 3d
       -0.15689115 -0.27950552 -0.09730768 0.04062433
0003a0 e2 fd 04 3e 95 99 9a 3e 1d f1 9f 3e 28 b0 84 be
       0.12987474 0.301953 0.31238642 -0.25915647
0003b0 89 6b 2f bd b3 ca be 3e e5 7e 14 bf 69 79 53 be
       -0.042827163 0.37264022 -0.58006126 -0.20651783
0003c0 dc e2 ef bd e1 30 f4 3e af 7a af bb d1 07 b7 3e
       -0.11713192 0.47693542 -0.005355201 0.3574815
0003d0 38 e3 1d 3e 2a 84 a1 be 6b 78 84 3e 64 10 a1 3e
       0.15418708 -0.31546146 0.25873122 0.31457818
0003e0 8f af 47 3e 0a 28 fa bd 58 4c b7 3e 03 a7 be 3e
       0.19500564 -0.12214668 0.35800433 0.37236795
0003f0 92 04 60 be e6 29 66 be cc 5d ca 3d b4 b4 87 be
       -0.21876743 -0.2247692 0.098811716 -0.26505053
